<?xml version="1.0"?>
<net name="Model0" version="11">
	<layers>
		<layer id="3" name="input_ids" type="Parameter" version="opset1">
			<data shape="?,?" element_type="i64" />
			<rt_info>
				<attribute name="fused_names" version="0" value="input_ids" />
			</rt_info>
			<output>
				<port id="0" precision="I64" names="input_ids">
					<dim>-1</dim>
					<dim>-1</dim>
				</port>
			</output>
		</layer>
		<layer id="2" name="attention_mask" type="Parameter" version="opset1">
			<data shape="?,?" element_type="i64" />
			<rt_info>
				<attribute name="fused_names" version="0" value="attention_mask" />
			</rt_info>
			<output>
				<port id="0" precision="I64" names="attention_mask">
					<dim>-1</dim>
					<dim>-1</dim>
				</port>
			</output>
		</layer>
		<layer id="1" name="position_ids" type="Parameter" version="opset1">
			<data shape="?,?" element_type="i64" />
			<rt_info>
				<attribute name="fused_names" version="0" value="position_ids" />
			</rt_info>
			<output>
				<port id="0" precision="I64" names="position_ids">
					<dim>-1</dim>
					<dim>-1</dim>
				</port>
			</output>
		</layer>
		<layer id="0" name="beam_idx" type="Parameter" version="opset1">
			<data shape="?" element_type="i32" />
			<rt_info>
				<attribute name="fused_names" version="0" value="beam_idx" />
			</rt_info>
			<output>
				<port id="0" precision="I32" names="beam_idx">
					<dim>-1</dim>
				</port>
			</output>
		</layer>
		<layer id="4" name="self.model.embed_tokens.weight_compressed" type="Const" version="opset1">
			<data element_type="u8" shape="152064, 5120" offset="0" size="778567680" />
			<rt_info>
				<attribute name="fused_names" version="0" value="self.model.embed_tokens.weight_compressed" />
			</rt_info>
			<output>
				<port id="0" precision="U8">
					<dim>152064</dim>
					<dim>5120</dim>
				</port>
			</output>
		</layer>
		<layer id="5" name="__module.model.embed_tokens/aten::embedding/Convert" type="Convert" version="opset1">
			<data destination_type="i32" />
			<rt_info>
				<attribute name="fused_names" version="0" value="__module.model.embed_tokens/aten::embedding/Convert" />
			</rt_info>
			<input>
				<port id="0" precision="I64">
					<dim>-1</dim>
					<dim>-1</dim>
				</port>
			</input>
			<output>
				<port id="1" precision="I32">
					<dim>-1</dim>
					<dim>-1</dim>
				</port>
			</output>
		</layer>
		<layer id="6" name="__module.model.embed_tokens/aten::embedding/Constant" type="Const" version="opset1">
			<data element_type="i32" shape="" offset="778567680" size="4" />
			<rt_info>
				<attribute name="fused_names" version="0" value="__module.model.embed_tokens/aten::embedding/Constant" />
			</rt_info>
			<output>
				<port id="0" precision="I32" />
			</output>
		</layer>
		<layer id="7" name="self.model.embed_tokens.weight_compressed/scale" type="Const" version="opset1">
			<data element_type="f16" shape="152064, 1" offset="778567684" size="304128" />
			<rt_info>
				<attribute name="fused_names" version="0" value="self.model.embed_tokens.weight_compressed/scale" />
			</rt_info>
			<output>
				<port id="0" precision="FP16">
					<dim>152064</dim>
					<dim>1</dim>
				</port>
			</output>
		</layer>
		<layer id="8" name="Convert_377313" type="Const" version="opset1">
			<data element_type="f16" shape="152064, 1" offset="778871812" size="304128" />
			<rt_info>
				<attribute name="fused_names" version="0" value="Convert_377313, self.model.embed_tokens.weight_compressed/zero_point" />
			</rt_info>
			<output>
				<port id="0" precision="FP16">
					<dim>152064</dim>
					<dim>1</dim>
				</port>
			</output>
		</layer>
		<layer id="9" name="__module.model.embed_tokens/aten::embedding/Gather" type="GatherCompressed" version="ie_internal_opset">
			<data batch_dims="0" />
			<rt_info>
				<attribute name="fused_names" version="0" value="Convert_377310, Convert_377313, __module.model.embed_tokens/aten::embedding/Constant, __module.model.embed_tokens/aten::embedding/Convert, __module.model.embed_tokens/aten::embedding/Gather, self.model.embed_tokens.weight, self.model.embed_tokens.weight_compressed, self.model.embed_tokens.weight_compressed/fq_weights_0, self.model.embed_tokens.weight_compressed/scale, self.model.embed_tokens.weight_compressed/zero_point, self.model.embed_tokens.weight_compressed/zero_point/subtract" />
			</rt_info>
			<input>
				<port id="0" precision="U8">
					<dim>152064</dim>
					<dim>5120</dim>
				</port>
				<port id="1" precision="I32">
					<dim>-1</dim>
					<dim>-1</dim>
				</port>
				<port id="2" precision="I32" />
				<port id="3" precision="FP16">
					<dim>152064</dim>
					<dim>1</dim>
				</port>
				<port id="4" precision="FP16">
					<dim>152064</dim>
					<dim>1</dim>
				</port>
			</input>
			<output>
				<port id="5" precision="FP16" names="375,431,442,hidden_states.1,hidden_states.3">
					<dim>-1</dim>
					<dim>-1</dim>
					<dim>5120</dim>
				</port>
			</output>
		</layer>
		<layer id="10" name="__module.model.embed_tokens/aten::embedding/Gather_decompressed_to_f32" type="Convert" version="opset1">
			<data destination_type="f32" />
			<rt_info>
				<attribute name="fused_names" version="0" value="__module.model.embed_tokens/aten::embedding/Gather" />
				<attribute name="precise" version="0" />
			</rt_info>
			<input>
				<port id="0" precision="FP16">
					<dim>-1</dim>
					<dim>-1</dim>
					<dim>5120</dim>
				</port>
			</input>
			<output>
				<port id="1" precision="FP32">
					<dim>-1</dim>
					<dim>-1</dim>
					<dim>5120</dim>
				</port>
			</output>
		</layer>
		<layer id="11" name="Constant_232210" type="Const" version="opset1">
			<data element_type="f32" shape="1, 1, 5120" offset="779175940" size="20480" />
			<rt_info>
				<attribute name="fused_names" version="0" value="Constant_232210, Constant_232210_compressed" />
			</rt_info>
			<output>
				<port id="0" precision="FP32">
					<dim>1</dim>
					<dim>1</dim>
					<dim>5120</dim>
				</port>
			</output>
		</layer>
		<layer id="12" name="__module.model.layers.0.input_layernorm/aten::mul/Multiply_1_compressed_to_f16" type="RMS" version="ie_internal_opset">
			<data epsilon="1.0132789611816406e-06" output_type="f16" />
			<rt_info>
				<attribute name="fused_names" version="0" value="Constant_232207, Constant_232207_compressed, Constant_232208, Constant_232208_compressed, Constant_232210, Constant_232210_compressed, Constant_380, __module.model.embed_tokens/aten::embedding/Gather, __module.model.layers.0.input_layernorm/aten::add/Add, __module.model.layers.0.input_layernorm/aten::mean/ReduceMean, __module.model.layers.0.input_layernorm/aten::mul/Multiply, __module.model.layers.0.input_layernorm/aten::mul/Multiply_1, __module.model.layers.0.input_layernorm/aten::pow/Power, __module.model.layers.0.input_layernorm/aten::rsqrt/Divide, __module.model.layers.0.input_layernorm/aten::rsqrt/Sqrt" />
			</rt_info>
			<input>
				<port id="0" precision="FP32">
					<dim>-1</dim>
					<dim>-1</dim>
					<dim>5120</dim>
				</port>
				<port id="1" precision="FP32">
					<dim>1</dim>
					<dim>1</dim>
					<dim>5120</dim>
				</port>
			</input>
			<output>
				<port id="2" precision="FP16">
					<dim>-1</dim>
					<dim>-1</dim>
					<dim>5120</dim>
				</port>
			</output>
		</layer>
		<layer id="13" name="Constant_250364_fused" type="Const" version="opset1">
			<data element_type="i4" shape="15360, 5120" offset="779196420" size="39321600" />
			<rt_info>
				<attribute name="fused_names" version="0" value="Constant_377323, Constant_377330, Constant_377337, Convert_377319, Convert_377326, Convert_377333, Placeholder_245217, Placeholder_245220, Placeholder_245223, Reshape_377324, Reshape_377331, Reshape_377338, __module.model.layers.0.input_layernorm/aten::mul/Multiply_1, __module.model.layers.0.self_attn.k_proj/aten::linear/MatMul, __module.model.layers.0.self_attn.q_proj/aten::linear/MatMul, __module.model.layers.0.self_attn.v_proj/aten::linear/MatMul, self.model.layers.0.self_attn.k_proj.weight, self.model.layers.0.self_attn.k_proj.weight_compressed, self.model.layers.0.self_attn.k_proj.weight_compressed/fq_weights_1, self.model.layers.0.self_attn.k_proj.weight_compressed/scale, self.model.layers.0.self_attn.q_proj.weight, self.model.layers.0.self_attn.q_proj.weight_compressed, self.model.layers.0.self_attn.q_proj.weight_compressed/fq_weights_1, self.model.layers.0.self_attn.q_proj.weight_compressed/scale, self.model.layers.0.self_attn.v_proj.weight, self.model.layers.0.self_attn.v_proj.weight_compressed, self.model.layers.0.self_attn.v_proj.weight_compressed/fq_weights_1, self.model.layers.0.self_attn.v_proj.weight_compressed/scale" />
			</rt_info>
			<output>
				<port id="0" precision="I4">
					<dim>15360</dim>
					<dim>5120</dim>
				</port>
			</output>
		</layer>
		<layer id="14" name="Constant_307773" type="Const" version="opset1">
			<data element_type="i64" shape="1" offset="818518020" size="8" />
			<output>
				<port id="0" precision="I64">
					<dim>1</dim>
				</port>
			</output>
		</layer>
		<layer id="15" name="Constant_307774" type="Const" version="opset1">
			<data element_type="i64" shape="2" offset="818518028" size="16" />
			<output>
				<port id="0" precision="I64">
					<dim>2</dim>
				</port>
			</output>
		</layer>
		<layer id="16" name="VariadicSplit_307775" type="VariadicSplit" version="opset1">
			<input>
				<port id="0" precision="I4">
					<dim>15360</dim>
					<dim>5120</dim>
				</port>
				<port id="1" precision="I64">
					<dim>1</dim>
				</port>
				<port id="2" precision="I64">
					<dim>2</dim>
				</port>
			</input>
			<output>
				<port id="3" precision="I4">
					<dim>7680</dim>
					<dim>5120</dim>
				</port>
				<port id="4" precision="I4">
					<dim>7680</dim>
					<dim>5120</dim>
				</port>
			</output>
		</layer>
		<layer id="17" name="Placeholder_256071" type="Placeholder" version="gpu_opset">
			<rt_info>
				<attribute name="fused_names" version="0" value="Placeholder_256071" />
			</rt_info>
			<output>
				<port id="0" precision="UNSPECIFIED" />
			</output>
		</layer>
		<layer id="18" name="Constant_250363_fused" type="Const" version="opset1">
			<data element_type="f16" shape="15360, 40" offset="818518044" size="1228800" />
			<rt_info>
				<attribute name="fused_names" version="0" value="Constant_377323, Constant_377330, Constant_377337, Convert_377319, Convert_377326, Convert_377333, Placeholder_245217, Placeholder_245220, Placeholder_245223, Reshape_377324, Reshape_377331, Reshape_377338, __module.model.layers.0.input_layernorm/aten::mul/Multiply_1, __module.model.layers.0.self_attn.k_proj/aten::linear/MatMul, __module.model.layers.0.self_attn.q_proj/aten::linear/MatMul, __module.model.layers.0.self_attn.v_proj/aten::linear/MatMul, self.model.layers.0.self_attn.k_proj.weight, self.model.layers.0.self_attn.k_proj.weight_compressed, self.model.layers.0.self_attn.k_proj.weight_compressed/fq_weights_1, self.model.layers.0.self_attn.k_proj.weight_compressed/scale, self.model.layers.0.self_attn.q_proj.weight, self.model.layers.0.self_attn.q_proj.weight_compressed, self.model.layers.0.self_attn.q_proj.weight_compressed/fq_weights_1, self.model.layers.0.self_attn.q_proj.weight_compressed/scale, self.model.layers.0.self_attn.v_proj.weight, self.model.layers.0.self_attn.v_proj.weight_compressed, self.model.layers.0.self_attn.v_proj.weight_compressed/fq_weights_1, self.model.layers.0.self_attn.v_proj.weight_compressed/scale" />
			</rt_info>
			<output>
				<port id="0" precision="FP16">
					<dim>15360</dim>
					<dim>40</dim>
				</port>
			</output>
		</layer>
		<layer id="19" name="Constant_307776" type="Const" version="opset1">
			<data element_type="i64" shape="2" offset="818518028" size="16" />
			<output>
				<port id="0" precision="I64">
					<dim>2</dim>
				</port>
			</output>
		</layer>
		<layer id="20" name="VariadicSplit_307777" type="VariadicSplit" version="opset1">
			<input>
				<port id="0" precision="FP16">
					<dim>15360</dim>
					<dim>40</dim>
				</port>
				<port id="1" precision="I64">
					<dim>1</dim>
				</port>
				<port id="2" precision="I64">
					<dim>2</dim>
				</port>
			</input>
			<output>
				<port id="3" precision="FP16">
					<dim>7680</dim>
					<dim>40</dim>
				</port>
				<port id="4" precision="FP16">
					<dim>7680</dim>
					<dim>40</dim>
				</port>
			</output>
		</layer>
		<layer id="21" name="__module.model.layers.0.self_attn.q_proj/aten::linear/MatMul_fused" type="FullyConnectedCompressed" version="gpu_opset">
			<data output_type="f16" />
			<rt_info>
				<attribute name="fused_names" version="0" value="Constant_377323, Constant_377330, Constant_377337, Convert_377319, Convert_377326, Convert_377333, Placeholder_245217, Placeholder_245220, Placeholder_245223, Reshape_377324, Reshape_377331, Reshape_377338, __module.model.layers.0.input_layernorm/aten::mul/Multiply_1, __module.model.layers.0.self_attn.k_proj/aten::linear/MatMul, __module.model.layers.0.self_attn.q_proj/aten::linear/MatMul, __module.model.layers.0.self_attn.v_proj/aten::linear/MatMul, self.model.layers.0.self_attn.k_proj.weight, self.model.layers.0.self_attn.k_proj.weight_compressed, self.model.layers.0.self_attn.k_proj.weight_compressed/fq_weights_1, self.model.layers.0.self_attn.k_proj.weight_compressed/scale, self.model.layers.0.self_attn.q_proj.weight, self.model.layers.0.self_attn.q_proj.weight_compressed, self.model.layers.0.self_attn.q_proj.weight_compressed/fq_weights_1, self.model.layers.0.self_attn.q_proj.weight_compressed/scale, self.model.layers.0.self_attn.v_proj.weight, self.model.layers.0.self_attn.v_proj.weight_compressed, self.model.layers.0.self_attn.v_proj.weight_compressed/fq_weights_1, self.model.layers.0.self_attn.v_proj.weight_compressed/scale" />
			</rt_info>
			<input>
				<port id="0" precision="FP16">
					<dim>-1</dim>
					<dim>-1</dim>
					<dim>5120</dim>
				</port>
				<port id="1" precision="I4">
					<dim>7680</dim>
					<dim>5120</dim>
				</port>
				<port id="2" precision="UNSPECIFIED" />
				<port id="3" precision="FP16">
					<dim>7680</dim>
					<dim>40</dim>
				</port>
			</input>
			<output>
				<port id="4" precision="FP16">
					<dim>-1</dim>
					<dim>-1</dim>
					<dim>7680</dim>
				</port>
			</output>
		</layer>
		<layer id="22" name="__module.model.layers.0.self_attn.q_proj/aten::linear/MatMul_fused_TP" type="SYNCTENSOR" version="gpu_opset">
			<data output_type="f16" />
			<input>
				<port id="0" precision="FP16">
					<dim>-1</dim>
					<dim>-1</dim>
					<dim>7680</dim>
				</port>
			</input>
			<output>
				<port id="1" precision="FP16">
					<dim>-1</dim>
					<dim>-1</dim>
					<dim>7680</dim>
				</port>
				<port id="2" precision="FP16">
					<dim>-1</dim>
					<dim>-1</dim>
					<dim>7680</dim>
				</port>
			</output>
		</layer>
		<layer id="23" name="__module.model.layers.0.self_attn.q_proj/aten::linear/MatMul_fused_ALLGATHER" type="Concat" version="opset1">
			<data axis="-1" />
			<rt_info>
				<attribute name="fused_names" version="0" value="Constant_377323, Constant_377330, Constant_377337, Convert_377319, Convert_377326, Convert_377333, Placeholder_245217, Placeholder_245220, Placeholder_245223, Reshape_377324, Reshape_377331, Reshape_377338, __module.model.layers.0.input_layernorm/aten::mul/Multiply_1, __module.model.layers.0.self_attn.k_proj/aten::linear/MatMul, __module.model.layers.0.self_attn.q_proj/aten::linear/MatMul, __module.model.layers.0.self_attn.v_proj/aten::linear/MatMul, self.model.layers.0.self_attn.k_proj.weight, self.model.layers.0.self_attn.k_proj.weight_compressed, self.model.layers.0.self_attn.k_proj.weight_compressed/fq_weights_1, self.model.layers.0.self_attn.k_proj.weight_compressed/scale, self.model.layers.0.self_attn.q_proj.weight, self.model.layers.0.self_attn.q_proj.weight_compressed, self.model.layers.0.self_attn.q_proj.weight_compressed/fq_weights_1, self.model.layers.0.self_attn.q_proj.weight_compressed/scale, self.model.layers.0.self_attn.v_proj.weight, self.model.layers.0.self_attn.v_proj.weight_compressed, self.model.layers.0.self_attn.v_proj.weight_compressed/fq_weights_1, self.model.layers.0.self_attn.v_proj.weight_compressed/scale" />
			</rt_info>
			<input>
				<port id="0" precision="FP16">
					<dim>-1</dim>
					<dim>-1</dim>
					<dim>7680</dim>
				</port>
				<port id="1" precision="FP16">
					<dim>-1</dim>
					<dim>-1</dim>
					<dim>7680</dim>
				</port>
			</input>
			<output>
				<port id="2" precision="FP16">
					<dim>-1</dim>
					<dim>-1</dim>
					<dim>15360</dim>
				</port>
			</output>
		</layer>
		<layer id="24" name="Constant_256075" type="Const" version="opset1">
			<data element_type="i64" shape="1" offset="819746844" size="8" />
			<rt_info>
				<attribute name="fused_names" version="0" value="Constant_377323, Constant_377330, Constant_377337, Convert_377319, Convert_377326, Convert_377333, Placeholder_245217, Placeholder_245220, Placeholder_245223, Reshape_377324, Reshape_377331, Reshape_377338, __module.model.layers.0.input_layernorm/aten::mul/Multiply_1, __module.model.layers.0.self_attn.k_proj/aten::linear/MatMul, __module.model.layers.0.self_attn.q_proj/aten::linear/MatMul, __module.model.layers.0.self_attn.v_proj/aten::linear/MatMul, self.model.layers.0.self_attn.k_proj.weight, self.model.layers.0.self_attn.k_proj.weight_compressed, self.model.layers.0.self_attn.k_proj.weight_compressed/fq_weights_1, self.model.layers.0.self_attn.k_proj.weight_compressed/scale, self.model.layers.0.self_attn.q_proj.weight, self.model.layers.0.self_attn.q_proj.weight_compressed, self.model.layers.0.self_attn.q_proj.weight_compressed/fq_weights_1, self.model.layers.0.self_attn.q_proj.weight_compressed/scale, self.model.layers.0.self_attn.v_proj.weight, self.model.layers.0.self_attn.v_proj.weight_compressed, self.model.layers.0.self_attn.v_proj.weight_compressed/fq_weights_1, self.model.layers.0.self_attn.v_proj.weight_compressed/scale" />
			</rt_info>
			<output>
				<port id="0" precision="I64">
					<dim>1</dim>
				</port>
			</output>
		</layer>
		<layer id="25" name="Constant_256076" type="Const" version="opset1">
			<data element_type="i64" shape="3" offset="819746852" size="24" />
			<rt_info>
				<attribute name="fused_names" version="0" value="Constant_377323, Constant_377330, Constant_377337, Convert_377319, Convert_377326, Convert_377333, Placeholder_245217, Placeholder_245220, Placeholder_245223, Reshape_377324, Reshape_377331, Reshape_377338, __module.model.layers.0.input_layernorm/aten::mul/Multiply_1, __module.model.layers.0.self_attn.k_proj/aten::linear/MatMul, __module.model.layers.0.self_attn.q_proj/aten::linear/MatMul, __module.model.layers.0.self_attn.v_proj/aten::linear/MatMul, self.model.layers.0.self_attn.k_proj.weight, self.model.layers.0.self_attn.k_proj.weight_compressed, self.model.layers.0.self_attn.k_proj.weight_compressed/fq_weights_1, self.model.layers.0.self_attn.k_proj.weight_compressed/scale, self.model.layers.0.self_attn.q_proj.weight, self.model.layers.0.self_attn.q_proj.weight_compressed, self.model.layers.0.self_attn.q_proj.weight_compressed/fq_weights_1, self.model.layers.0.self_attn.q_proj.weight_compressed/scale, self.model.layers.0.self_attn.v_proj.weight, self.model.layers.0.self_attn.v_proj.weight_compressed, self.model.layers.0.self_attn.v_proj.weight_compressed/fq_weights_1, self.model.layers.0.self_attn.v_proj.weight_compressed/scale" />
			</rt_info>
			<output>
				<port id="0" precision="I64">
					<dim>3</dim>
				</port>
			</output>
		</layer>
		<layer id="26" name="__module.model.layers.0.self_attn.q_proj/aten::linear/MatMul_split" type="VariadicSplit" version="opset1">
			<rt_info>
				<attribute name="fused_names" version="0" value="Constant_377323, Constant_377330, Constant_377337, Convert_377319, Convert_377326, Convert_377333, Placeholder_245217, Placeholder_245220, Placeholder_245223, Reshape_377324, Reshape_377331, Reshape_377338, __module.model.layers.0.input_layernorm/aten::mul/Multiply_1, __module.model.layers.0.self_attn.k_proj/aten::linear/MatMul, __module.model.layers.0.self_attn.q_proj/aten::linear/MatMul, __module.model.layers.0.self_attn.v_proj/aten::linear/MatMul, self.model.layers.0.self_attn.k_proj.weight, self.model.layers.0.self_attn.k_proj.weight_compressed, self.model.layers.0.self_attn.k_proj.weight_compressed/fq_weights_1, self.model.layers.0.self_attn.k_proj.weight_compressed/scale, self.model.layers.0.self_attn.q_proj.weight, self.model.layers.0.self_attn.q_proj.weight_compressed, self.model.layers.0.self_attn.q_proj.weight_compressed/fq_weights_1, self.model.layers.0.self_attn.q_proj.weight_compressed/scale, self.model.layers.0.self_attn.v_proj.weight, self.model.layers.0.self_attn.v_proj.weight_compressed, self.model.layers.0.self_attn.v_proj.weight_compressed/fq_weights_1, self.model.layers.0.self_attn.v_proj.weight_compressed/scale" />
			</rt_info>
			<input>
				<port id="0" precision="FP16">
					<dim>-1</dim>
					<dim>-1</dim>
					<dim>15360</dim>
				</port>
				<port id="1" precision="I64">
					<dim>1</dim>
				</port>
				<port id="2" precision="I64">
					<dim>3</dim>
				</port>
			</input>
			<output>
				<port id="3" precision="FP16">
					<dim>-1</dim>
					<dim>-1</dim>
					<dim>5120</dim>
				</port>
				<port id="4" precision="FP16">
					<dim>-1</dim>
					<dim>-1</dim>
					<dim>5120</dim>
				</port>
				<port id="5" precision="FP16">
					<dim>-1</dim>
					<dim>-1</dim>
					<dim>5120</dim>
				</port>
			</output>
		</layer>
		<layer id="27" name="Constant_232211_compressed" type="Const" version="opset1">
			<data element_type="f16" shape="1, 1, 5120" offset="819746876" size="10240" />
			<rt_info>
				<attribute name="fused_names" version="0" value="Constant_232211, Constant_232211_compressed" />
			</rt_info>
			<output>
				<port id="0" precision="FP16">
					<dim>1</dim>
					<dim>1</dim>
					<dim>5120</dim>
				</port>
			</output>
		</layer>
		<layer id="28" name="__module.model.layers.0.self_attn.q_proj/aten::linear/Add" type="Add" version="opset1">
			<data auto_broadcast="numpy" />
			<rt_info>
				<attribute name="fused_names" version="0" value="__module.model.layers.0.self_attn.q_proj/aten::linear/Add" />
			</rt_info>
			<input>
				<port id="0" precision="FP16">
					<dim>-1</dim>
					<dim>-1</dim>
					<dim>5120</dim>
				</port>
				<port id="1" precision="FP16">
					<dim>1</dim>
					<dim>1</dim>
					<dim>5120</dim>
				</port>
			</input>
			<output>
				<port id="2" precision="FP16" names="452,query_states.1">
					<dim>-1</dim>
					<dim>-1</dim>
					<dim>5120</dim>
				</port>
			</output>
		</layer>
		<layer id="29" name="Constant_244566" type="Const" version="opset1">
			<data element_type="i32" shape="4" offset="819757116" size="16" />
			<rt_info>
				<attribute name="fused_names" version="0" value="Constant_244566" />
			</rt_info>
			<output>
				<port id="0" precision="I32">
					<dim>4</dim>
				</port>
			</output>
		</layer>
		<layer id="30" name="__module.model.layers.0.self_attn/aten::view/Reshape" type="Reshape" version="opset1">
			<data special_zero="true" />
			<rt_info>
				<attribute name="fused_names" version="0" value="__module.model.layers.0.self_attn/aten::view/Reshape" />
			</rt_info>
			<input>
				<port id="0" precision="FP16">
					<dim>-1</dim>
					<dim>-1</dim>
					<dim>5120</dim>
				</port>
				<port id="1" precision="I32">
					<dim>4</dim>
				</port>
			</input>
			<output>
				<port id="2" precision="FP16" names="460">
					<dim>-1</dim>
					<dim>-1</dim>
					<dim>40</dim>
					<dim>128</dim>
				</port>
			</output>
		</layer>
		<layer id="31" name="self.model.layers.0.self_attn.rotary_emb.cos_cached_compressed" type="Const" version="opset1">
			<data element_type="f16" shape="32768, 128" offset="819757132" size="8388608" />
			<rt_info>
				<attribute name="fused_names" version="0" value="self.model.layers.0.self_attn.rotary_emb.cos_cached, self.model.layers.0.self_attn.rotary_emb.cos_cached_compressed" />
			</rt_info>
			<output>
				<port id="0" precision="FP16" names="self.model.layers.0.self_attn.rotary_emb.cos_cached">
					<dim>32768</dim>
					<dim>128</dim>
				</port>
			</output>
		</layer>
		<layer id="32" name="self.model.layers.0.self_attn.rotary_emb.sin_cached_compressed" type="Const" version="opset1">
			<data element_type="f16" shape="32768, 128" offset="828145740" size="8388608" />
			<rt_info>
				<attribute name="fused_names" version="0" value="self.model.layers.0.self_attn.rotary_emb.sin_cached, self.model.layers.0.self_attn.rotary_emb.sin_cached_compressed" />
			</rt_info>
			<output>
				<port id="0" precision="FP16" names="self.model.layers.0.self_attn.rotary_emb.sin_cached">
					<dim>32768</dim>
					<dim>128</dim>
				</port>
			</output>
		</layer>
		<layer id="33" name="Convert_207338" type="Convert" version="opset1">
			<data destination_type="i32" />
			<input>
				<port id="0" precision="I64">
					<dim>-1</dim>
					<dim>-1</dim>
				</port>
			</input>
			<output>
				<port id="1" precision="I32">
					<dim>-1</dim>
					<dim>-1</dim>
				</port>
			</output>
		</layer>
		<layer id="34" name="__module.model/prim::ListConstruct/Reshape" type="Const" version="opset1">
			<data element_type="i32" shape="1" offset="836534348" size="4" />
			<rt_info>
				<attribute name="fused_names" version="0" value="__module.model/prim::ListConstruct/Reshape" />
			</rt_info>
			<output>
				<port id="0" precision="I32">
					<dim>1</dim>
				</port>
			</output>
		</layer>
		<layer id="35" name="ShapeOf_167597" type="ShapeOf" version="opset3">
			<data output_type="i32" />
			<rt_info>
				<attribute name="fused_names" version="0" value="Constant_240522, Constant_240523, Constant_285907, Constant_285909, Gather_240524, Gather_285910, ShapeOf_240521, ShapeOf_285905" />
			</rt_info>
			<input>
				<port id="0" precision="FP16">
					<dim>-1</dim>
					<dim>-1</dim>
					<dim>5120</dim>
				</port>
			</input>
			<output>
				<port id="1" precision="I32">
					<dim>3</dim>
				</port>
			</output>
		</layer>
		<layer id="36" name="Constant_167598" type="Const" version="opset1">
			<data element_type="i32" shape="" offset="836534352" size="4" />
			<rt_info>
				<attribute name="fused_names" version="0" value="Constant_240522, Constant_240523, Gather_240524, ShapeOf_240521" />
			</rt_info>
			<output>
				<port id="0" precision="I32" />
			</output>
		</layer>
		<layer id="37" name="Constant_167599" type="Const" version="opset1">
			<data element_type="i32" shape="" offset="778567680" size="4" />
			<rt_info>
				<attribute name="fused_names" version="0" value="Constant_240522, Constant_240523, Gather_240524, ShapeOf_240521" />
			</rt_info>
			<output>
				<port id="0" precision="I32" />
			</output>
		</layer>
		<layer id="38" name="Gather_167600" type="Gather" version="opset8">
			<data batch_dims="0" />
			<rt_info>
				<attribute name="fused_names" version="0" value="Constant_240522, Constant_240523, Constant_285907, Constant_285909, Convert_241167, Gather_240524, Gather_285910, ShapeOf_240521, ShapeOf_285905" />
			</rt_info>
			<input>
				<port id="0" precision="I32">
					<dim>3</dim>
				</port>
				<port id="1" precision="I32" />
				<port id="2" precision="I32" />
			</input>
			<output>
				<port id="3" precision="I32" names="1035,1176,1317,1458,1599,1740,1881,2022,2163,2304,2445,2586,2727,2868,3009,3150,3291,3432,3573,364,3714,3855,3996,4137,4278,4419,4560,468,4701,4842,4983,5124,5265,5406,5547,5688,5829,5970,612,753,894" />
			</output>
		</layer>
		<layer id="39" name="Constant_167602" type="Const" version="opset1">
			<data element_type="i32" shape="1" offset="836534352" size="4" />
			<rt_info>
				<attribute name="fused_names" version="0" value="Constant_240522, Constant_240523, Constant_240526, Gather_240524, Reshape_240527, ShapeOf_240521, Unsqueeze_240439, __module.model.layers.0.self_attn.rotary_emb/aten::slice/Constant" />
			</rt_info>
			<output>
				<port id="0" precision="I32">
					<dim>1</dim>
				</port>
			</output>
		</layer>
		<layer id="40" name="Reshape_167603" type="Reshape" version="opset1">
			<data special_zero="false" />
			<rt_info>
				<attribute name="fused_names" version="0" value="Constant_240522, Constant_240523, Constant_240526, Constant_285907, Constant_285909, Convert_241167, Gather_240524, Gather_285910, Reshape_240527, ShapeOf_240521, ShapeOf_285905, Unsqueeze_240439, __module.model.layers.0.self_attn.rotary_emb/aten::slice/Constant" />
			</rt_info>
			<input>
				<port id="0" precision="I32" />
				<port id="1" precision="I32">
					<dim>1</dim>
				</port>
			</input>
			<output>
				<port id="2" precision="I32">
					<dim>1</dim>
				</port>
			</output>
		</layer>
		<layer id="41" name="__module.model/prim::ListConstruct/Concat" type="Concat" version="opset1">
			<data axis="0" />
			<rt_info>
				<attribute name="fused_names" version="0" value="Constant_240522, Constant_240523, Constant_240526, Constant_285907, Constant_285909, Convert_241167, Gather_240524, Gather_285910, Reshape_240527, ShapeOf_240521, ShapeOf_285905, Unsqueeze_240439, __module.model.layers.0.self_attn.rotary_emb/aten::slice/Constant, __module.model/prim::ListConstruct/Concat, __module.model/prim::ListConstruct/Reshape" />
				<attribute name="precise" version="0" />
			</rt_info>
			<input>
				<port id="0" precision="I32">
					<dim>1</dim>
				</port>
				<port id="1" precision="I32">
					<dim>1</dim>
				</port>
			</input>
			<output>
				<port id="2" precision="I32" names="371">
					<dim>2</dim>
				</port>
			</output>
		</layer>
		<layer id="42" name="__module.model/aten::view/Reshape" type="Reshape" version="opset1">
			<data special_zero="false" />
			<rt_info>
				<attribute name="fused_names" version="0" value="__module.model.layers.0.self_attn/aten::index/Convert, __module.model/aten::view/Reshape" />
			</rt_info>
			<input>
				<port id="0" precision="I32">
					<dim>-1</dim>
					<dim>-1</dim>
				</port>
				<port id="1" precision="I32">
					<dim>2</dim>
				</port>
			</input>
			<output>
				<port id="2" precision="I32" names="372,373,position_ids">
					<dim>-1</dim>
					<dim>-1</dim>
				</port>
			</output>
		</layer>
		<layer id="43" name="__module.model.layers.0.self_attn/aten::add/Add" type="RoPE" version="ie_internal_opset">
			<data config.slice_start="0" config.slice_stop="0" config.input_trans0213="true" config.is_interleaved="false" config.rotary_ndims="128" config.is_chatglm="false" config.is_qwen="false" config.head_cnt="0" config.head_size="0" config.gather_position_arg_id="3" />
			<rt_info>
				<attribute name="fused_names" version="0" value="__module.model.layers.0.self_attn/aten::add/Add, __module.model.layers.0.self_attn/aten::cat/Concat, __module.model.layers.0.self_attn/aten::mul/Multiply, __module.model.layers.0.self_attn/aten::mul/Multiply_1, __module.model.layers.0.self_attn/aten::neg/Multiply" />
			</rt_info>
			<input>
				<port id="0" precision="FP16">
					<dim>-1</dim>
					<dim>-1</dim>
					<dim>40</dim>
					<dim>128</dim>
				</port>
				<port id="1" precision="FP16">
					<dim>32768</dim>
					<dim>128</dim>
				</port>
				<port id="2" precision="FP16">
					<dim>32768</dim>
					<dim>128</dim>
				</port>
				<port id="3" precision="I32">
					<dim>-1</dim>
					<dim>-1</dim>
				</port>
			</input>
			<output>
				<port id="4" precision="FP16" names="505">
					<dim>-1</dim>
					<dim>40</dim>
					<dim>-1</dim>
					<dim>128</dim>
				</port>
			</output>
		</layer>
		<layer id="44" name="Constant_285919_compressed" type="Const" version="opset1">
			<data element_type="f16" shape="" offset="836534356" size="2" />
			<rt_info>
				<attribute name="fused_names" version="0" value="Constant_285919, Constant_285919_compressed" />
			</rt_info>
			<output>
				<port id="0" precision="FP16" />
			</output>
		</layer>
		<layer id="45" name="Constant_167616" type="Const" version="opset1">
			<data element_type="i32" shape="1" offset="778567680" size="4" />
			<rt_info>
				<attribute name="fused_names" version="0" value="Constant_285907, Constant_285909, Gather_285910, ShapeOf_285905" />
			</rt_info>
			<output>
				<port id="0" precision="I32">
					<dim>1</dim>
				</port>
			</output>
		</layer>
		<layer id="46" name="Constant_167617" type="Const" version="opset1">
			<data element_type="i32" shape="" offset="778567680" size="4" />
			<rt_info>
				<attribute name="fused_names" version="0" value="Constant_285907, Constant_285909, Gather_285910, ShapeOf_285905" />
			</rt_info>
			<output>
				<port id="0" precision="I32" />
			</output>
		</layer>
		<layer id="47" name="Gather_167618" type="Gather" version="opset8">
			<data batch_dims="0" />
			<rt_info>
				<attribute name="fused_names" version="0" value="Constant_240522, Constant_240523, Constant_285907, Constant_285909, Gather_240524, Gather_285910, ShapeOf_240521, ShapeOf_285905" />
			</rt_info>
			<input>
				<port id="0" precision="I32">
					<dim>3</dim>
				</port>
				<port id="1" precision="I32">
					<dim>1</dim>
				</port>
				<port id="2" precision="I32" />
			</input>
			<output>
				<port id="3" precision="I32">
					<dim>1</dim>
				</port>
			</output>
		</layer>
		<layer id="48" name="Constant_285912" type="Const" version="opset1">
			<data element_type="i32" shape="1" offset="836534358" size="4" />
			<rt_info>
				<attribute name="fused_names" version="0" value="Constant_285912" />
			</rt_info>
			<output>
				<port id="0" precision="I32">
					<dim>1</dim>
				</port>
			</output>
		</layer>
		<layer id="49" name="Constant_285914" type="Const" version="opset1">
			<data element_type="i32" shape="1" offset="778567680" size="4" />
			<rt_info>
				<attribute name="fused_names" version="0" value="Constant_285914" />
			</rt_info>
			<output>
				<port id="0" precision="I32">
					<dim>1</dim>
				</port>
			</output>
		</layer>
		<layer id="50" name="Constant_285916" type="Const" version="opset1">
			<data element_type="i32" shape="1" offset="836534362" size="4" />
			<rt_info>
				<attribute name="fused_names" version="0" value="Constant_285916" />
			</rt_info>
			<output>
				<port id="0" precision="I32">
					<dim>1</dim>
				</port>
			</output>
		</layer>
		<layer id="51" name="Concat_285917" type="Concat" version="opset1">
			<data axis="0" />
			<rt_info>
				<attribute name="fused_names" version="0" value="Concat_285917, Concat_285930, Concat_285943, Concat_285956, Concat_285969, Concat_285982, Concat_285995, Concat_286008, Concat_286021, Concat_286034, Concat_286047, Concat_286060, Concat_286073, Concat_286086, Concat_286099, Concat_286112, Concat_286125, Concat_286138, Concat_286151, Concat_286164, Concat_286177, Concat_286190, Concat_286203, Concat_286216, Concat_286229, Concat_286242, Concat_286255, Concat_286268, Concat_286281, Concat_286294, Concat_286307, Concat_286320, Concat_286333, Concat_286346, Concat_286359, Concat_286372, Concat_286385, Concat_286398, Concat_286411, Concat_286424, Concat_286437, Concat_286450, Concat_286463, Concat_286476, Concat_286489, Concat_286502, Concat_286515, Concat_286528, Concat_286541, Concat_286554, Concat_286567, Concat_286580, Concat_286593, Concat_286606, Concat_286619, Concat_286632, Concat_286645, Concat_286658, Concat_286671, Concat_286684, Concat_286697, Concat_286710, Concat_286723, Concat_286736, Concat_286749, Concat_286762, Concat_286775, Concat_286788, Concat_286801, Concat_286814, Concat_286827, Concat_286840, Concat_286853, Concat_286866, Concat_286879, Concat_286892, Concat_286905, Concat_286918, Concat_286931, Concat_286944, Constant_240522, Constant_240523, Constant_285907, Constant_285909, Constant_285912, Constant_285914, Constant_285916, Constant_285925, Constant_285927, Constant_285929, Constant_285938, Constant_285940, Constant_285942, Constant_285951, Constant_285953, Constant_285955, Constant_285964, Constant_285966, Constant_285968, Constant_285977, Constant_285979, Constant_285981, Constant_285990, Constant_285992, Constant_285994, Constant_286003, Constant_286005, Constant_286007, Constant_286016, Constant_286018, Constant_286020, Constant_286029, Constant_286031, Constant_286033, Constant_286042, Constant_286044, Constant_286046, Constant_286055, Constant_286057, Constant_286059, Constant_286068, Constant_286070, Constant_286072, Constant_286081, Constant_286083, Constant_286085, Constant_286094, Constant_286096, Constant_286098, Constant_286107, Constant_286109, Constant_286111, Constant_286120, Constant_286122, Constant_286124, Constant_286133, Constant_286135, Constant_286137, Constant_286146, Constant_286148, Constant_286150, Constant_286159, Constant_286161, Constant_286163, Constant_286172, Constant_286174, Constant_286176, Constant_286185, Constant_286187, Constant_286189, Constant_286198, Constant_286200, Constant_286202, Constant_286211, Constant_286213, Constant_286215, Constant_286224, Constant_286226, Constant_286228, Constant_286237, Constant_286239, Constant_286241, Constant_286250, Constant_286252, Constant_286254, Constant_286263, Constant_286265, Constant_286267, Constant_286276, Constant_286278, Constant_286280, Constant_286289, Constant_286291, Constant_286293, Constant_286302, Constant_286304, Constant_286306, Constant_286315, Constant_286317, Constant_286319, Constant_286328, Constant_286330, Constant_286332, Constant_286341, Constant_286343, Constant_286345, Constant_286354, Constant_286356, Constant_286358, Constant_286367, Constant_286369, Constant_286371, Constant_286380, Constant_286382, Constant_286384, Constant_286393, Constant_286395, Constant_286397, Constant_286406, Constant_286408, Constant_286410, Constant_286419, Constant_286421, Constant_286423, Constant_286432, Constant_286434, Constant_286436, Constant_286445, Constant_286447, Constant_286449, Constant_286458, Constant_286460, Constant_286462, Constant_286471, Constant_286473, Constant_286475, Constant_286484, Constant_286486, Constant_286488, Constant_286497, Constant_286499, Constant_286501, Constant_286510, Constant_286512, Constant_286514, Constant_286523, Constant_286525, Constant_286527, Constant_286536, Constant_286538, Constant_286540, Constant_286549, Constant_286551, Constant_286553, Constant_286562, Constant_286564, Constant_286566, Constant_286575, Constant_286577, Constant_286579, Constant_286588, Constant_286590, Constant_286592, Constant_286601, Constant_286603, Constant_286605, Constant_286614, Constant_286616, Constant_286618, Constant_286627, Constant_286629, Constant_286631, Constant_286640, Constant_286642, Constant_286644, Constant_286653, Constant_286655, Constant_286657, Constant_286666, Constant_286668, Constant_286670, Constant_286679, Constant_286681, Constant_286683, Constant_286692, Constant_286694, Constant_286696, Constant_286705, Constant_286707, Constant_286709, Constant_286718, Constant_286720, Constant_286722, Constant_286731, Constant_286733, Constant_286735, Constant_286744, Constant_286746, Constant_286748, Constant_286757, Constant_286759, Constant_286761, Constant_286770, Constant_286772, Constant_286774, Constant_286783, Constant_286785, Constant_286787, Constant_286796, Constant_286798, Constant_286800, Constant_286809, Constant_286811, Constant_286813, Constant_286822, Constant_286824, Constant_286826, Constant_286835, Constant_286837, Constant_286839, Constant_286848, Constant_286850, Constant_286852, Constant_286861, Constant_286863, Constant_286865, Constant_286874, Constant_286876, Constant_286878, Constant_286887, Constant_286889, Constant_286891, Constant_286900, Constant_286902, Constant_286904, Constant_286913, Constant_286915, Constant_286917, Constant_286926, Constant_286928, Constant_286930, Constant_286939, Constant_286941, Constant_286943, Gather_240524, Gather_285910, ShapeOf_240521, ShapeOf_285905" />
				<attribute name="precise" version="0" />
			</rt_info>
			<input>
				<port id="0" precision="I32">
					<dim>1</dim>
				</port>
				<port id="1" precision="I32">
					<dim>1</dim>
				</port>
				<port id="2" precision="I32">
					<dim>1</dim>
				</port>
				<port id="3" precision="I32">
					<dim>1</dim>
				</port>
			</input>
			<output>
				<port id="4" precision="I32">
					<dim>4</dim>
				</port>
			</output>
		</layer>
		<layer id="52" name="Broadcast_285920" type="Broadcast" version="opset3">
			<data mode="numpy" />
			<rt_info>
				<attribute name="fused_names" version="0" value="Broadcast_285920, Broadcast_285933, Broadcast_285946, Broadcast_285959, Broadcast_285972, Broadcast_285985, Broadcast_285998, Broadcast_286011, Broadcast_286024, Broadcast_286037, Broadcast_286050, Broadcast_286063, Broadcast_286076, Broadcast_286089, Broadcast_286102, Broadcast_286115, Broadcast_286128, Broadcast_286141, Broadcast_286154, Broadcast_286167, Broadcast_286180, Broadcast_286193, Broadcast_286206, Broadcast_286219, Broadcast_286232, Broadcast_286245, Broadcast_286258, Broadcast_286271, Broadcast_286284, Broadcast_286297, Broadcast_286310, Broadcast_286323, Broadcast_286336, Broadcast_286349, Broadcast_286362, Broadcast_286375, Broadcast_286388, Broadcast_286401, Broadcast_286414, Broadcast_286427, Broadcast_286440, Broadcast_286453, Broadcast_286466, Broadcast_286479, Broadcast_286492, Broadcast_286505, Broadcast_286518, Broadcast_286531, Broadcast_286544, Broadcast_286557, Broadcast_286570, Broadcast_286583, Broadcast_286596, Broadcast_286609, Broadcast_286622, Broadcast_286635, Broadcast_286648, Broadcast_286661, Broadcast_286674, Broadcast_286687, Broadcast_286700, Broadcast_286713, Broadcast_286726, Broadcast_286739, Broadcast_286752, Broadcast_286765, Broadcast_286778, Broadcast_286791, Broadcast_286804, Broadcast_286817, Broadcast_286830, Broadcast_286843, Broadcast_286856, Broadcast_286869, Broadcast_286882, Broadcast_286895, Broadcast_286908, Broadcast_286921, Broadcast_286934, Broadcast_286947, Concat_285917, Concat_285930, Concat_285943, Concat_285956, Concat_285969, Concat_285982, Concat_285995, Concat_286008, Concat_286021, Concat_286034, Concat_286047, Concat_286060, Concat_286073, Concat_286086, Concat_286099, Concat_286112, Concat_286125, Concat_286138, Concat_286151, Concat_286164, Concat_286177, Concat_286190, Concat_286203, Concat_286216, Concat_286229, Concat_286242, Concat_286255, Concat_286268, Concat_286281, Concat_286294, Concat_286307, Concat_286320, Concat_286333, Concat_286346, Concat_286359, Concat_286372, Concat_286385, Concat_286398, Concat_286411, Concat_286424, Concat_286437, Concat_286450, Concat_286463, Concat_286476, Concat_286489, Concat_286502, Concat_286515, Concat_286528, Concat_286541, Concat_286554, Concat_286567, Concat_286580, Concat_286593, Concat_286606, Concat_286619, Concat_286632, Concat_286645, Concat_286658, Concat_286671, Concat_286684, Concat_286697, Concat_286710, Concat_286723, Concat_286736, Concat_286749, Concat_286762, Concat_286775, Concat_286788, Concat_286801, Concat_286814, Concat_286827, Concat_286840, Concat_286853, Concat_286866, Concat_286879, Concat_286892, Concat_286905, Concat_286918, Concat_286931, Concat_286944, Constant_240522, Constant_240523, Constant_285907, Constant_285909, Constant_285912, Constant_285914, Constant_285916, Constant_285919, Constant_285919_compressed, Constant_285925, Constant_285927, Constant_285929, Constant_285932, Constant_285932_compressed, Constant_285938, Constant_285940, Constant_285942, Constant_285945, Constant_285945_compressed, Constant_285951, Constant_285953, Constant_285955, Constant_285958, Constant_285958_compressed, Constant_285964, Constant_285966, Constant_285968, Constant_285971, Constant_285971_compressed, Constant_285977, Constant_285979, Constant_285981, Constant_285984, Constant_285984_compressed, Constant_285990, Constant_285992, Constant_285994, Constant_285997, Constant_285997_compressed, Constant_286003, Constant_286005, Constant_286007, Constant_286010, Constant_286010_compressed, Constant_286016, Constant_286018, Constant_286020, Constant_286023, Constant_286023_compressed, Constant_286029, Constant_286031, Constant_286033, Constant_286036, Constant_286036_compressed, Constant_286042, Constant_286044, Constant_286046, Constant_286049, Constant_286049_compressed, Constant_286055, Constant_286057, Constant_286059, Constant_286062, Constant_286062_compressed, Constant_286068, Constant_286070, Constant_286072, Constant_286075, Constant_286075_compressed, Constant_286081, Constant_286083, Constant_286085, Constant_286088, Constant_286088_compressed, Constant_286094, Constant_286096, Constant_286098, Constant_286101, Constant_286101_compressed, Constant_286107, Constant_286109, Constant_286111, Constant_286114, Constant_286114_compressed, Constant_286120, Constant_286122, Constant_286124, Constant_286127, Constant_286127_compressed, Constant_286133, Constant_286135, Constant_286137, Constant_286140, Constant_286140_compressed, Constant_286146, Constant_286148, Constant_286150, Constant_286153, Constant_286153_compressed, Constant_286159, Constant_286161, Constant_286163, Constant_286166, Constant_286166_compressed, Constant_286172, Constant_286174, Constant_286176, Constant_286179, Constant_286179_compressed, Constant_286185, Constant_286187, Constant_286189, Constant_286192, Constant_286192_compressed, Constant_286198, Constant_286200, Constant_286202, Constant_286205, Constant_286205_compressed, Constant_286211, Constant_286213, Constant_286215, Constant_286218, Constant_286218_compressed, Constant_286224, Constant_286226, Constant_286228, Constant_286231, Constant_286231_compressed, Constant_286237, Constant_286239, Constant_286241, Constant_286244, Constant_286244_compressed, Constant_286250, Constant_286252, Constant_286254, Constant_286257, Constant_286257_compressed, Constant_286263, Constant_286265, Constant_286267, Constant_286270, Constant_286270_compressed, Constant_286276, Constant_286278, Constant_286280, Constant_286283, Constant_286283_compressed, Constant_286289, Constant_286291, Constant_286293, Constant_286296, Constant_286296_compressed, Constant_286302, Constant_286304, Constant_286306, Constant_286309, Constant_286309_compressed, Constant_286315, Constant_286317, Constant_286319, Constant_286322, Constant_286322_compressed, Constant_286328, Constant_286330, Constant_286332, Constant_286335, Constant_286335_compressed, Constant_286341, Constant_286343, Constant_286345, Constant_286348, Constant_286348_compressed, Constant_286354, Constant_286356, Constant_286358, Constant_286361, Constant_286361_compressed, Constant_286367, Constant_286369, Constant_286371, Constant_286374, Constant_286374_compressed, Constant_286380, Constant_286382, Constant_286384, Constant_286387, Constant_286387_compressed, Constant_286393, Constant_286395, Constant_286397, Constant_286400, Constant_286400_compressed, Constant_286406, Constant_286408, Constant_286410, Constant_286413, Constant_286413_compressed, Constant_286419, Constant_286421, Constant_286423, Constant_286426, Constant_286426_compressed, Constant_286432, Constant_286434, Constant_286436, Constant_286439, Constant_286439_compressed, Constant_286445, Constant_286447, Constant_286449, Constant_286452, Constant_286452_compressed, Constant_286458, Constant_286460, Constant_286462, Constant_286465, Constant_286465_compressed, Constant_286471, Constant_286473, Constant_286475, Constant_286478, Constant_286478_compressed, Constant_286484, Constant_286486, Constant_286488, Constant_286491, Constant_286491_compressed, Constant_286497, Constant_286499, Constant_286501, Constant_286504, Constant_286504_compressed, Constant_286510, Constant_286512, Constant_286514, Constant_286517, Constant_286517_compressed, Constant_286523, Constant_286525, Constant_286527, Constant_286530, Constant_286530_compressed, Constant_286536, Constant_286538, Constant_286540, Constant_286543, Constant_286543_compressed, Constant_286549, Constant_286551, Constant_286553, Constant_286556, Constant_286556_compressed, Constant_286562, Constant_286564, Constant_286566, Constant_286569, Constant_286569_compressed, Constant_286575, Constant_286577, Constant_286579, Constant_286582, Constant_286582_compressed, Constant_286588, Constant_286590, Constant_286592, Constant_286595, Constant_286595_compressed, Constant_286601, Constant_286603, Constant_286605, Constant_286608, Constant_286608_compressed, Constant_286614, Constant_286616, Constant_286618, Constant_286621, Constant_286621_compressed, Constant_286627, Constant_286629, Constant_286631, Constant_286634, Constant_286634_compressed, Constant_286640, Constant_286642, Constant_286644, Constant_286647, Constant_286647_compressed, Constant_286653, Constant_286655, Constant_286657, Constant_286660, Constant_286660_compressed, Constant_286666, Constant_286668, Constant_286670, Constant_286673, Constant_286673_compressed, Constant_286679, Constant_286681, Constant_286683, Constant_286686, Constant_286686_compressed, Constant_286692, Constant_286694, Constant_286696, Constant_286699, Constant_286699_compressed, Constant_286705, Constant_286707, Constant_286709, Constant_286712, Constant_286712_compressed, Constant_286718, Constant_286720, Constant_286722, Constant_286725, Constant_286725_compressed, Constant_286731, Constant_286733, Constant_286735, Constant_286738, Constant_286738_compressed, Constant_286744, Constant_286746, Constant_286748, Constant_286751, Constant_286751_compressed, Constant_286757, Constant_286759, Constant_286761, Constant_286764, Constant_286764_compressed, Constant_286770, Constant_286772, Constant_286774, Constant_286777, Constant_286777_compressed, Constant_286783, Constant_286785, Constant_286787, Constant_286790, Constant_286790_compressed, Constant_286796, Constant_286798, Constant_286800, Constant_286803, Constant_286803_compressed, Constant_286809, Constant_286811, Constant_286813, Constant_286816, Constant_286816_compressed, Constant_286822, Constant_286824, Constant_286826, Constant_286829, Constant_286829_compressed, Constant_286835, Constant_286837, Constant_286839, Constant_286842, Constant_286842_compressed, Constant_286848, Constant_286850, Constant_286852, Constant_286855, Constant_286855_compressed, Constant_286861, Constant_286863, Constant_286865, Constant_286868, Constant_286868_compressed, Constant_286874, Constant_286876, Constant_286878, Constant_286881, Constant_286881_compressed, Constant_286887, Constant_286889, Constant_286891, Constant_286894, Constant_286894_compressed, Constant_286900, Constant_286902, Constant_286904, Constant_286907, Constant_286907_compressed, Constant_286913, Constant_286915, Constant_286917, Constant_286920, Constant_286920_compressed, Constant_286926, Constant_286928, Constant_286930, Constant_286933, Constant_286933_compressed, Constant_286939, Constant_286941, Constant_286943, Constant_286946, Constant_286946_compressed, Gather_240524, Gather_285910, ShapeOf_240521, ShapeOf_285905" />
			</rt_info>
			<input>
				<port id="0" precision="FP16" />
				<port id="1" precision="I32">
					<dim>4</dim>
				</port>
			</input>
			<output>
				<port id="2" precision="FP16">
					<dim>-1</dim>
					<dim>40</dim>
					<dim>0</dim>
					<dim>128</dim>
				</port>
			</output>
		</layer>
		<layer id="53" name="ReadValue_278987" type="ReadValue" version="gpu_opset">
			<data variable_id="past_key_values.0.keypresent.0.key" variable_type="f16" variable_shape="?,40,?,128" />
			<rt_info>
				<attribute name="fused_names" version="0" value="ReadValue_278987" />
			</rt_info>
			<input>
				<port id="0" precision="FP16">
					<dim>-1</dim>
					<dim>40</dim>
					<dim>0</dim>
					<dim>128</dim>
				</port>
			</input>
			<output>
				<port id="1" precision="FP16" names="past_key_values.0.key">
					<dim>-1</dim>
					<dim>40</dim>
					<dim>-1</dim>
					<dim>128</dim>
				</port>
			</output>
		</layer>
		<layer id="54" name="Constant_232212_compressed" type="Const" version="opset1">
			<data element_type="f16" shape="1, 1, 5120" offset="836534366" size="10240" />
			<rt_info>
				<attribute name="fused_names" version="0" value="Constant_232212, Constant_232212_compressed" />
			</rt_info>
			<output>
				<port id="0" precision="FP16">
					<dim>1</dim>
					<dim>1</dim>
					<dim>5120</dim>
				</port>
			</output>
		</layer>
		<layer id="55" name="__module.model.layers.0.self_attn.k_proj/aten::linear/Add" type="Add" version="opset1">
			<data auto_broadcast="numpy" />
			<rt_info>
				<attribute name="fused_names" version="0" value="__module.model.layers.0.self_attn.k_proj/aten::linear/Add" />
			</rt_info>
			<input>
				<port id="0" precision="FP16">
					<dim>-1</dim>
					<dim>-1</dim>
					<dim>5120</dim>
				</port>
				<port id="1" precision="FP16">
					<dim>1</dim>
					<dim>1</dim>
					<dim>5120</dim>
				</port>
			</input>
			<output>
				<port id="2" precision="FP16" names="455,key_states.3">
					<dim>-1</dim>
					<dim>-1</dim>
					<dim>5120</dim>
				</port>
			</output>
		</layer>
		<layer id="56" name="Constant_244567" type="Const" version="opset1">
			<data element_type="i32" shape="4" offset="819757116" size="16" />
			<rt_info>
				<attribute name="fused_names" version="0" value="Constant_244567" />
			</rt_info>
			<output>
				<port id="0" precision="I32">
					<dim>4</dim>
				</port>
			</output>
		</layer>
		<layer id="57" name="__module.model.layers.0.self_attn/aten::view/Reshape_1" type="Reshape" version="opset1">
			<data special_zero="true" />
			<rt_info>
				<attribute name="fused_names" version="0" value="__module.model.layers.0.self_attn/aten::view/Reshape_1" />
			</rt_info>
			<input>
				<port id="0" precision="FP16">
					<dim>-1</dim>
					<dim>-1</dim>
					<dim>5120</dim>
				</port>
				<port id="1" precision="I32">
					<dim>4</dim>
				</port>
			</input>
			<output>
				<port id="2" precision="FP16" names="463">
					<dim>-1</dim>
					<dim>-1</dim>
					<dim>40</dim>
					<dim>128</dim>
				</port>
			</output>
		</layer>
		<layer id="58" name="__module.model.layers.0.self_attn/aten::add/Add_1" type="RoPE" version="ie_internal_opset">
			<data config.slice_start="0" config.slice_stop="0" config.input_trans0213="true" config.is_interleaved="false" config.rotary_ndims="128" config.is_chatglm="false" config.is_qwen="false" config.head_cnt="0" config.head_size="0" config.gather_position_arg_id="3" />
			<rt_info>
				<attribute name="fused_names" version="0" value="__module.model.layers.0.self_attn/aten::add/Add_1, __module.model.layers.0.self_attn/aten::cat/Concat_1, __module.model.layers.0.self_attn/aten::mul/Multiply_2, __module.model.layers.0.self_attn/aten::mul/Multiply_3, __module.model.layers.0.self_attn/aten::neg/Multiply_1" />
			</rt_info>
			<input>
				<port id="0" precision="FP16">
					<dim>-1</dim>
					<dim>-1</dim>
					<dim>40</dim>
					<dim>128</dim>
				</port>
				<port id="1" precision="FP16">
					<dim>32768</dim>
					<dim>128</dim>
				</port>
				<port id="2" precision="FP16">
					<dim>32768</dim>
					<dim>128</dim>
				</port>
				<port id="3" precision="I32">
					<dim>-1</dim>
					<dim>-1</dim>
				</port>
			</input>
			<output>
				<port id="4" precision="FP16" names="521,key_states.7">
					<dim>-1</dim>
					<dim>40</dim>
					<dim>-1</dim>
					<dim>128</dim>
				</port>
			</output>
		</layer>
		<layer id="59" name="__module.model.layers.0.self_attn/aten::cat/Concat_2" type="KVCache" version="gpu_opset">
			<data concat_axis="-2" gather_axis="0" indirect="true" output_type="f16" />
			<rt_info>
				<attribute name="fused_names" version="0" value="Assign_278988, Constant_271990, Gather_271991, ReadValue_278987, __module.model.layers.0.self_attn/aten::add/Add_1, __module.model.layers.0.self_attn/aten::cat/Concat_2, beam_idx" />
			</rt_info>
			<input>
				<port id="0" precision="FP16">
					<dim>-1</dim>
					<dim>40</dim>
					<dim>-1</dim>
					<dim>128</dim>
				</port>
				<port id="1" precision="FP16">
					<dim>-1</dim>
					<dim>40</dim>
					<dim>-1</dim>
					<dim>128</dim>
				</port>
				<port id="2" precision="I32">
					<dim>-1</dim>
				</port>
			</input>
			<output>
				<port id="3" precision="FP16" names="present.0.key">
					<dim>-1</dim>
					<dim>40</dim>
					<dim>-1</dim>
					<dim>128</dim>
				</port>
				<port id="4" precision="I32">
					<dim>-1</dim>
					<dim>1</dim>
					<dim>-1</dim>
					<dim>1</dim>
				</port>
			</output>
		</layer>
		<layer id="60" name="ReadValue_278989" type="ReadValue" version="gpu_opset">
			<data variable_id="past_key_values.0.valuepresent.0.value" variable_type="f16" variable_shape="?,40,?,128" />
			<rt_info>
				<attribute name="fused_names" version="0" value="ReadValue_278989" />
			</rt_info>
			<input>
				<port id="0" precision="FP16">
					<dim>-1</dim>
					<dim>40</dim>
					<dim>0</dim>
					<dim>128</dim>
				</port>
			</input>
			<output>
				<port id="1" precision="FP16" names="past_key_values.0.value">
					<dim>-1</dim>
					<dim>40</dim>
					<dim>-1</dim>
					<dim>128</dim>
				</port>
			</output>
		</layer>
		<layer id="61" name="Constant_232215_compressed" type="Const" version="opset1">
			<data element_type="f16" shape="1, 1, 5120" offset="836544606" size="10240" />
			<rt_info>
				<attribute name="fused_names" version="0" value="Constant_232215, Constant_232215_compressed" />
			</rt_info>
			<output>
				<port id="0" precision="FP16">
					<dim>1</dim>
					<dim>1</dim>
					<dim>5120</dim>
				</port>
			</output>
		</layer>
		<layer id="62" name="__module.model.layers.0.self_attn.v_proj/aten::linear/Add" type="Add" version="opset1">
			<data auto_broadcast="numpy" />
			<rt_info>
				<attribute name="fused_names" version="0" value="__module.model.layers.0.self_attn.v_proj/aten::linear/Add" />
			</rt_info>
			<input>
				<port id="0" precision="FP16">
					<dim>-1</dim>
					<dim>-1</dim>
					<dim>5120</dim>
				</port>
				<port id="1" precision="FP16">
					<dim>1</dim>
					<dim>1</dim>
					<dim>5120</dim>
				</port>
			</input>
			<output>
				<port id="2" precision="FP16" names="458,value_states.1">
					<dim>-1</dim>
					<dim>-1</dim>
					<dim>5120</dim>
				</port>
			</output>
		</layer>
		<layer id="63" name="Constant_244568" type="Const" version="opset1">
			<data element_type="i32" shape="4" offset="819757116" size="16" />
			<rt_info>
				<attribute name="fused_names" version="0" value="Constant_244568" />
			</rt_info>
			<output>
				<port id="0" precision="I32">
					<dim>4</dim>
				</port>
			</output>
		</layer>
		<layer id="64" name="__module.model.layers.0.self_attn/aten::view/Reshape_2" type="Reshape" version="opset1">
			<data special_zero="true" />
			<rt_info>
				<attribute name="fused_names" version="0" value="__module.model.layers.0.self_attn/aten::view/Reshape_2" />
			</rt_info>
			<input>
				<port id="0" precision="FP16">
					<dim>-1</dim>
					<dim>-1</dim>
					<dim>5120</dim>
				</port>
				<port id="1" precision="I32">
					<dim>4</dim>
				</port>
			</input>
			<output>
				<port id="2" precision="FP16" names="466">
					<dim>-1</dim>
					<dim>-1</dim>
					<dim>40</dim>
					<dim>128</dim>
				</port>
			</output>
		</layer>
		<layer id="65" name="__module.model.layers.0.self_attn/aten::transpose/ScatterElementsUpdate_2" type="Const" version="opset1">
			<data element_type="i32" shape="4" offset="836554846" size="16" />
			<rt_info>
				<attribute name="fused_names" version="0" value="__module.model.layers.0.self_attn/aten::transpose/ScatterElementsUpdate_2" />
			</rt_info>
			<output>
				<port id="0" precision="I32">
					<dim>4</dim>
				</port>
			</output>
		</layer>
		<layer id="66" name="__module.model.layers.0.self_attn/aten::transpose/Transpose_2" type="Transpose" version="opset1">
			<rt_info>
				<attribute name="fused_names" version="0" value="__module.model.layers.0.self_attn/aten::transpose/Transpose_2" />
			</rt_info>
			<input>
				<port id="0" precision="FP16">
					<dim>-1</dim>
					<dim>-1</dim>
					<dim>40</dim>
					<dim>128</dim>
				</port>
				<port id="1" precision="I32">
					<dim>4</dim>
				</port>
			</input>
			<output>
				<port id="2" precision="FP16" names="467">
					<dim>-1</dim>
					<dim>40</dim>
					<dim>-1</dim>
					<dim>128</dim>
				</port>
			</output>
		</layer>
		<layer id="67" name="__module.model.layers.0.self_attn/aten::cat/Concat_3" type="KVCache" version="gpu_opset">
			<data concat_axis="-2" gather_axis="0" indirect="true" output_type="f16" />
			<rt_info>
				<attribute name="fused_names" version="0" value="Assign_278990, Constant_271993, Gather_271994, ReadValue_278989, __module.model.layers.0.self_attn/aten::cat/Concat_3, __module.model.layers.0.self_attn/aten::transpose/Transpose_2, beam_idx" />
			</rt_info>
			<input>
				<port id="0" precision="FP16">
					<dim>-1</dim>
					<dim>40</dim>
					<dim>-1</dim>
					<dim>128</dim>
				</port>
				<port id="1" precision="FP16">
					<dim>-1</dim>
					<dim>40</dim>
					<dim>-1</dim>
					<dim>128</dim>
				</port>
				<port id="2" precision="I32">
					<dim>-1</dim>
				</port>
			</input>
			<output>
				<port id="3" precision="FP16" names="present.0.value">
					<dim>-1</dim>
					<dim>40</dim>
					<dim>-1</dim>
					<dim>128</dim>
				</port>
				<port id="4" precision="I32">
					<dim>-1</dim>
					<dim>1</dim>
					<dim>-1</dim>
					<dim>1</dim>
				</port>
			</output>
		</layer>
		<layer id="68" name="Constant_232217_compressed" type="Const" version="opset1">
			<data element_type="f16" shape="1, 1, 1, 1" offset="836554862" size="2" />
			<rt_info>
				<attribute name="fused_names" version="0" value="Constant_232217, Constant_232217_compressed" />
			</rt_info>
			<output>
				<port id="0" precision="FP16">
					<dim>1</dim>
					<dim>1</dim>
					<dim>1</dim>
					<dim>1</dim>
				</port>
			</output>
		</layer>
		<layer id="69" name="Convert_207337" type="Convert" version="opset1">
			<data destination_type="i32" />
			<input>
				<port id="0" precision="I64">
					<dim>-1</dim>
					<dim>-1</dim>
				</port>
			</input>
			<output>
				<port id="1" precision="I32">
					<dim>-1</dim>
					<dim>-1</dim>
				</port>
			</output>
		</layer>
		<layer id="70" name="Constant_120017" type="Const" version="opset1">
			<data element_type="i32" shape="2" offset="836554864" size="8" />
			<rt_info>
				<attribute name="fused_names" version="0" value="__module.model/aten::unsqueeze/Unsqueeze_1" />
			</rt_info>
			<output>
				<port id="0" precision="I32">
					<dim>2</dim>
				</port>
			</output>
		</layer>
		<layer id="71" name="__module.model/aten::unsqueeze/Unsqueeze_1" type="Unsqueeze" version="opset1">
			<rt_info>
				<attribute name="fused_names" version="0" value="__module.model/aten::unsqueeze/Unsqueeze_1" />
			</rt_info>
			<input>
				<port id="0" precision="I32">
					<dim>-1</dim>
					<dim>-1</dim>
				</port>
				<port id="1" precision="I32">
					<dim>2</dim>
				</port>
			</input>
			<output>
				<port id="2" precision="I32" names="415,416">
					<dim>-1</dim>
					<dim>1</dim>
					<dim>1</dim>
					<dim>-1</dim>
				</port>
			</output>
		</layer>
		<layer id="72" name="ShapeOf_167605" type="ShapeOf" version="opset3">
			<data output_type="i32" />
			<rt_info>
				<attribute name="fused_names" version="0" value="Constant_240530, Constant_240531, Constant_240535, Constant_240536, Gather_240532, Gather_240537, ShapeOf_240529" />
			</rt_info>
			<input>
				<port id="0" precision="I32">
					<dim>-1</dim>
					<dim>-1</dim>
				</port>
			</input>
			<output>
				<port id="1" precision="I32">
					<dim>2</dim>
				</port>
			</output>
		</layer>
		<layer id="73" name="Constant_167606" type="Const" version="opset1">
			<data element_type="i32" shape="1" offset="778567680" size="4" />
			<rt_info>
				<attribute name="fused_names" version="0" value="Constant_240530, Constant_240531, Gather_240532, ShapeOf_240529" />
			</rt_info>
			<output>
				<port id="0" precision="I32">
					<dim>1</dim>
				</port>
			</output>
		</layer>
		<layer id="74" name="Constant_167607" type="Const" version="opset1">
			<data element_type="i32" shape="" offset="778567680" size="4" />
			<rt_info>
				<attribute name="fused_names" version="0" value="Constant_240530, Constant_240531, Gather_240532, ShapeOf_240529" />
			</rt_info>
			<output>
				<port id="0" precision="I32" />
			</output>
		</layer>
		<layer id="75" name="Gather_167608" type="Gather" version="opset8">
			<data batch_dims="0" />
			<rt_info>
				<attribute name="fused_names" version="0" value="Constant_240530, Constant_240531, Constant_240535, Constant_240536, Gather_240532, Gather_240537, ShapeOf_240529" />
			</rt_info>
			<input>
				<port id="0" precision="I32">
					<dim>2</dim>
				</port>
				<port id="1" precision="I32">
					<dim>1</dim>
				</port>
				<port id="2" precision="I32" />
			</input>
			<output>
				<port id="3" precision="I32" names="377,411">
					<dim>1</dim>
				</port>
			</output>
		</layer>
		<layer id="76" name="Constant_210392" type="Const" version="opset1">
			<data element_type="i32" shape="1" offset="836534352" size="4" />
			<rt_info>
				<attribute name="fused_names" version="0" value="Constant_210392" />
			</rt_info>
			<output>
				<port id="0" precision="I32">
					<dim>1</dim>
				</port>
			</output>
		</layer>
		<layer id="77" name="Constant_167611" type="Const" version="opset1">
			<data element_type="i32" shape="1" offset="836534352" size="4" />
			<rt_info>
				<attribute name="fused_names" version="0" value="Constant_240535, Constant_240536, Gather_240537, ShapeOf_240529" />
			</rt_info>
			<output>
				<port id="0" precision="I32">
					<dim>1</dim>
				</port>
			</output>
		</layer>
		<layer id="78" name="Constant_167612" type="Const" version="opset1">
			<data element_type="i32" shape="" offset="778567680" size="4" />
			<rt_info>
				<attribute name="fused_names" version="0" value="Constant_240535, Constant_240536, Gather_240537, ShapeOf_240529" />
			</rt_info>
			<output>
				<port id="0" precision="I32" />
			</output>
		</layer>
		<layer id="79" name="Gather_167613" type="Gather" version="opset8">
			<data batch_dims="0" />
			<rt_info>
				<attribute name="fused_names" version="0" value="Constant_240530, Constant_240531, Constant_240535, Constant_240536, Gather_240532, Gather_240537, ShapeOf_240529" />
			</rt_info>
			<input>
				<port id="0" precision="I32">
					<dim>2</dim>
				</port>
				<port id="1" precision="I32">
					<dim>1</dim>
				</port>
				<port id="2" precision="I32" />
			</input>
			<output>
				<port id="3" precision="I32" names="412">
					<dim>1</dim>
				</port>
			</output>
		</layer>
		<layer id="80" name="__module.model/prim::ListConstruct/Concat_1" type="Concat" version="opset1">
			<data axis="0" />
			<rt_info>
				<attribute name="fused_names" version="0" value="Constant_210392, Constant_240522, Constant_240523, Constant_240526, Constant_240530, Constant_240531, Constant_240535, Constant_240536, Constant_285907, Constant_285909, Convert_241167, Gather_240524, Gather_240532, Gather_240537, Gather_285910, Reshape_240527, ShapeOf_240521, ShapeOf_240529, ShapeOf_285905, Unsqueeze_240439, __module.model.layers.0.self_attn.rotary_emb/aten::slice/Constant, __module.model/prim::ListConstruct/Concat_1" />
				<attribute name="precise" version="0" />
			</rt_info>
			<input>
				<port id="0" precision="I32">
					<dim>1</dim>
				</port>
				<port id="1" precision="I32">
					<dim>1</dim>
				</port>
				<port id="2" precision="I32">
					<dim>1</dim>
				</port>
				<port id="3" precision="I32">
					<dim>1</dim>
				</port>
			</input>
			<output>
				<port id="4" precision="I32" names="417">
					<dim>4</dim>
				</port>
			</output>
		</layer>
		<layer id="81" name="__module.model/aten::expand/Broadcast" type="Broadcast" version="opset3">
			<data mode="bidirectional" />
			<rt_info>
				<attribute name="fused_names" version="0" value="__module.model/aten::expand/Broadcast" />
			</rt_info>
			<input>
				<port id="0" precision="I32">
					<dim>-1</dim>
					<dim>1</dim>
					<dim>1</dim>
					<dim>-1</dim>
				</port>
				<port id="1" precision="I32">
					<dim>4</dim>
				</port>
			</input>
			<output>
				<port id="2" precision="I32" names="418">
					<dim>-1</dim>
					<dim>1</dim>
					<dim>-1</dim>
					<dim>-1</dim>
				</port>
			</output>
		</layer>
		<layer id="82" name="__module.model/aten::to/Convert_1" type="Convert" version="opset1">
			<data destination_type="f16" />
			<rt_info>
				<attribute name="fused_names" version="0" value="__module.model/aten::to/Convert_1" />
			</rt_info>
			<input>
				<port id="0" precision="I32">
					<dim>-1</dim>
					<dim>1</dim>
					<dim>-1</dim>
					<dim>-1</dim>
				</port>
			</input>
			<output>
				<port id="1" precision="FP16" names="419">
					<dim>-1</dim>
					<dim>1</dim>
					<dim>-1</dim>
					<dim>-1</dim>
				</port>
			</output>
		</layer>
		<layer id="83" name="Constant_189782" type="Const" version="opset1">
			<data element_type="f16" shape="1, 1, 1, 1" offset="836554872" size="2" />
			<rt_info>
				<attribute name="fused_names" version="0" value="Constant_232216, Constant_232216_compressed, __module.model/aten::rsub/Subtract" />
			</rt_info>
			<output>
				<port id="0" precision="FP16">
					<dim>1</dim>
					<dim>1</dim>
					<dim>1</dim>
					<dim>1</dim>
				</port>
			</output>
		</layer>
		<layer id="84" name="Multiply_175683" type="Multiply" version="opset1">
			<data auto_broadcast="numpy" />
			<rt_info>
				<attribute name="fused_names" version="0" value="__module.model/aten::rsub/Multiply, __module.model/aten::rsub/Subtract" />
			</rt_info>
			<input>
				<port id="0" precision="FP16">
					<dim>-1</dim>
					<dim>1</dim>
					<dim>-1</dim>
					<dim>-1</dim>
				</port>
				<port id="1" precision="FP16">
					<dim>1</dim>
					<dim>1</dim>
					<dim>1</dim>
					<dim>1</dim>
				</port>
			</input>
			<output>
				<port id="2" precision="FP16">
					<dim>-1</dim>
					<dim>1</dim>
					<dim>-1</dim>
					<dim>-1</dim>
				</port>
			</output>
		</layer>
		<layer id="85" name="__module.model/aten::rsub/Subtract" type="Add" version="opset1">
			<data auto_broadcast="numpy" />
			<rt_info>
				<attribute name="fused_names" version="0" value="__module.model/aten::rsub/Subtract" />
			</rt_info>
			<input>
				<port id="0" precision="FP16">
					<dim>1</dim>
					<dim>1</dim>
					<dim>1</dim>
					<dim>1</dim>
				</port>
				<port id="1" precision="FP16">
					<dim>-1</dim>
					<dim>1</dim>
					<dim>-1</dim>
					<dim>-1</dim>
				</port>
			</input>
			<output>
				<port id="2" precision="FP16" names="420,inverted_mask">
					<dim>-1</dim>
					<dim>1</dim>
					<dim>-1</dim>
					<dim>-1</dim>
				</port>
			</output>
		</layer>
		<layer id="86" name="__module.model/aten::to/Convert_2" type="Convert" version="opset1">
			<data destination_type="u8" />
			<rt_info>
				<attribute name="fused_names" version="0" value="__module.model/aten::to/Convert_2" />
			</rt_info>
			<input>
				<port id="0" precision="FP16">
					<dim>-1</dim>
					<dim>1</dim>
					<dim>-1</dim>
					<dim>-1</dim>
				</port>
			</input>
			<output>
				<port id="1" precision="U8" names="421">
					<dim>-1</dim>
					<dim>1</dim>
					<dim>-1</dim>
					<dim>-1</dim>
				</port>
			</output>
		</layer>
		<layer id="87" name="__module.model/aten::masked_fill/ConvertLike" type="Const" version="opset1">
			<data element_type="f16" shape="" offset="836554874" size="2" />
			<rt_info>
				<attribute name="fused_names" version="0" value="__module.model/aten::masked_fill/ConvertLike" />
			</rt_info>
			<output>
				<port id="0" precision="FP16" />
			</output>
		</layer>
		<layer id="88" name="__module.model/aten::masked_fill/Select" type="Select" version="type_relaxed_opset">
			<data type_relax="true" input_data_types="boolean, undefined, undefined" output_data_types="" auto_broadcast="numpy" />
			<rt_info>
				<attribute name="fused_names" version="0" value="__module.model/aten::masked_fill/Select" />
			</rt_info>
			<input>
				<port id="0" precision="U8">
					<dim>-1</dim>
					<dim>1</dim>
					<dim>-1</dim>
					<dim>-1</dim>
				</port>
				<port id="1" precision="FP16" />
				<port id="2" precision="FP16">
					<dim>-1</dim>
					<dim>1</dim>
					<dim>-1</dim>
					<dim>-1</dim>
				</port>
			</input>
			<output>
				<port id="3" precision="FP16" names="422,423,expanded_attn_mask">
					<dim>-1</dim>
					<dim>1</dim>
					<dim>-1</dim>
					<dim>-1</dim>
				</port>
			</output>
		</layer>
		<layer id="89" name="__module.model/aten::to/Convert_4" type="Convert" version="opset1">
			<data destination_type="u8" />
			<rt_info>
				<attribute name="fused_names" version="0" value="__module.model/aten::to/Convert_4" />
			</rt_info>
			<input>
				<port id="0" precision="FP16">
					<dim>-1</dim>
					<dim>1</dim>
					<dim>-1</dim>
					<dim>-1</dim>
				</port>
			</input>
			<output>
				<port id="1" precision="U8" names="424">
					<dim>-1</dim>
					<dim>1</dim>
					<dim>-1</dim>
					<dim>-1</dim>
				</port>
			</output>
		</layer>
		<layer id="90" name="__module.model/aten::masked_fill/ConvertLike_1" type="Const" version="opset1">
			<data element_type="f16" shape="" offset="836554874" size="2" />
			<rt_info>
				<attribute name="fused_names" version="0" value="__module.model/aten::masked_fill/ConvertLike_1" />
			</rt_info>
			<output>
				<port id="0" precision="FP16" />
			</output>
		</layer>
		<layer id="91" name="Constant_232219" type="Const" version="opset1">
			<data element_type="i32" shape="1, 1" offset="836534352" size="4" />
			<rt_info>
				<attribute name="fused_names" version="0" value="Constant_232219" />
			</rt_info>
			<output>
				<port id="0" precision="I32">
					<dim>1</dim>
					<dim>1</dim>
				</port>
			</output>
		</layer>
		<layer id="92" name="__module.model/aten::triu/Constant" type="Const" version="opset1">
			<data element_type="i32" shape="" offset="778567680" size="4" />
			<rt_info>
				<attribute name="fused_names" version="0" value="__module.model/aten::triu/Constant" />
			</rt_info>
			<output>
				<port id="0" precision="I32" />
			</output>
		</layer>
		<layer id="93" name="ShapeOf_167620" type="ShapeOf" version="opset3">
			<data output_type="i32" />
			<rt_info>
				<attribute name="fused_names" version="0" value="Constant_240581, Constant_240582, Gather_240583, ShapeOf_240580, ShapeOf_241214, ShapeOf_241301, ShapeOf_241388, ShapeOf_241475, ShapeOf_241562, ShapeOf_241649, ShapeOf_241736, ShapeOf_241823, ShapeOf_241910, ShapeOf_241997, ShapeOf_242084, ShapeOf_242171, ShapeOf_242258, ShapeOf_242345, ShapeOf_242432, ShapeOf_242519, ShapeOf_242606, ShapeOf_242693, ShapeOf_242780, ShapeOf_242867, ShapeOf_242954, ShapeOf_243041, ShapeOf_243128, ShapeOf_243215, ShapeOf_243302, ShapeOf_243389, ShapeOf_243476, ShapeOf_243563, ShapeOf_243650, ShapeOf_243737, ShapeOf_243824, ShapeOf_243911, ShapeOf_243998, ShapeOf_244085, ShapeOf_244172, ShapeOf_244259, ShapeOf_244346, ShapeOf_244433, ShapeOf_244520" />
			</rt_info>
			<input>
				<port id="0" precision="FP16">
					<dim>-1</dim>
					<dim>40</dim>
					<dim>-1</dim>
					<dim>128</dim>
				</port>
			</input>
			<output>
				<port id="1" precision="I32">
					<dim>4</dim>
				</port>
			</output>
		</layer>
		<layer id="94" name="Constant_167621" type="Const" version="opset1">
			<data element_type="i32" shape="" offset="836554876" size="4" />
			<rt_info>
				<attribute name="fused_names" version="0" value="Constant_240581, Constant_240582, Gather_240583, ShapeOf_240580, ShapeOf_241214, ShapeOf_241301, ShapeOf_241388, ShapeOf_241475, ShapeOf_241562, ShapeOf_241649, ShapeOf_241736, ShapeOf_241823, ShapeOf_241910, ShapeOf_241997, ShapeOf_242084, ShapeOf_242171, ShapeOf_242258, ShapeOf_242345, ShapeOf_242432, ShapeOf_242519, ShapeOf_242606, ShapeOf_242693, ShapeOf_242780, ShapeOf_242867, ShapeOf_242954, ShapeOf_243041, ShapeOf_243128, ShapeOf_243215, ShapeOf_243302, ShapeOf_243389, ShapeOf_243476, ShapeOf_243563, ShapeOf_243650, ShapeOf_243737, ShapeOf_243824, ShapeOf_243911, ShapeOf_243998, ShapeOf_244085, ShapeOf_244172, ShapeOf_244259, ShapeOf_244346, ShapeOf_244433, ShapeOf_244520" />
			</rt_info>
			<output>
				<port id="0" precision="I32" />
			</output>
		</layer>
		<layer id="95" name="Constant_167622" type="Const" version="opset1">
			<data element_type="i32" shape="" offset="778567680" size="4" />
			<rt_info>
				<attribute name="fused_names" version="0" value="Constant_240581, Constant_240582, Gather_240583, ShapeOf_240580, ShapeOf_241214, ShapeOf_241301, ShapeOf_241388, ShapeOf_241475, ShapeOf_241562, ShapeOf_241649, ShapeOf_241736, ShapeOf_241823, ShapeOf_241910, ShapeOf_241997, ShapeOf_242084, ShapeOf_242171, ShapeOf_242258, ShapeOf_242345, ShapeOf_242432, ShapeOf_242519, ShapeOf_242606, ShapeOf_242693, ShapeOf_242780, ShapeOf_242867, ShapeOf_242954, ShapeOf_243041, ShapeOf_243128, ShapeOf_243215, ShapeOf_243302, ShapeOf_243389, ShapeOf_243476, ShapeOf_243563, ShapeOf_243650, ShapeOf_243737, ShapeOf_243824, ShapeOf_243911, ShapeOf_243998, ShapeOf_244085, ShapeOf_244172, ShapeOf_244259, ShapeOf_244346, ShapeOf_244433, ShapeOf_244520" />
			</rt_info>
			<output>
				<port id="0" precision="I32" />
			</output>
		</layer>
		<layer id="96" name="Gather_167623" type="Gather" version="opset8">
			<data batch_dims="0" />
			<rt_info>
				<attribute name="fused_names" version="0" value="Constant_240581, Constant_240582, Gather_240583, ShapeOf_240580, ShapeOf_241214, ShapeOf_241301, ShapeOf_241388, ShapeOf_241475, ShapeOf_241562, ShapeOf_241649, ShapeOf_241736, ShapeOf_241823, ShapeOf_241910, ShapeOf_241997, ShapeOf_242084, ShapeOf_242171, ShapeOf_242258, ShapeOf_242345, ShapeOf_242432, ShapeOf_242519, ShapeOf_242606, ShapeOf_242693, ShapeOf_242780, ShapeOf_242867, ShapeOf_242954, ShapeOf_243041, ShapeOf_243128, ShapeOf_243215, ShapeOf_243302, ShapeOf_243389, ShapeOf_243476, ShapeOf_243563, ShapeOf_243650, ShapeOf_243737, ShapeOf_243824, ShapeOf_243911, ShapeOf_243998, ShapeOf_244085, ShapeOf_244172, ShapeOf_244259, ShapeOf_244346, ShapeOf_244433, ShapeOf_244520" />
			</rt_info>
			<input>
				<port id="0" precision="I32">
					<dim>4</dim>
				</port>
				<port id="1" precision="I32" />
				<port id="2" precision="I32" />
			</input>
			<output>
				<port id="3" precision="I32" names="369,470" />
			</output>
		</layer>
		<layer id="97" name="__module.model/aten::add/Add" type="Add" version="opset1">
			<data auto_broadcast="numpy" />
			<rt_info>
				<attribute name="fused_names" version="0" value="Constant_240522, Constant_240523, Constant_240581, Constant_240582, Constant_285907, Constant_285909, Convert_241167, Gather_240524, Gather_240583, Gather_285910, ShapeOf_240521, ShapeOf_240580, ShapeOf_241214, ShapeOf_241301, ShapeOf_241388, ShapeOf_241475, ShapeOf_241562, ShapeOf_241649, ShapeOf_241736, ShapeOf_241823, ShapeOf_241910, ShapeOf_241997, ShapeOf_242084, ShapeOf_242171, ShapeOf_242258, ShapeOf_242345, ShapeOf_242432, ShapeOf_242519, ShapeOf_242606, ShapeOf_242693, ShapeOf_242780, ShapeOf_242867, ShapeOf_242954, ShapeOf_243041, ShapeOf_243128, ShapeOf_243215, ShapeOf_243302, ShapeOf_243389, ShapeOf_243476, ShapeOf_243563, ShapeOf_243650, ShapeOf_243737, ShapeOf_243824, ShapeOf_243911, ShapeOf_243998, ShapeOf_244085, ShapeOf_244172, ShapeOf_244259, ShapeOf_244346, ShapeOf_244433, ShapeOf_244520, ShapeOf_285905, __module.model/aten::add/Add" />
				<attribute name="precise" version="0" />
			</rt_info>
			<input>
				<port id="0" precision="I32" />
				<port id="1" precision="I32" />
			</input>
			<output>
				<port id="2" precision="I32" names="376,key_value_length" />
			</output>
		</layer>
		<layer id="98" name="Constant_175685" type="Const" version="opset1">
			<data element_type="i32" shape="" offset="836534348" size="4" />
			<rt_info>
				<attribute name="fused_names" version="0" value="Constant_240522, Constant_240523, Constant_240581, Constant_240582, Gather_240524, Gather_240583, ShapeOf_240521, ShapeOf_240580, ShapeOf_241214, ShapeOf_241301, ShapeOf_241388, ShapeOf_241475, ShapeOf_241562, ShapeOf_241649, ShapeOf_241736, ShapeOf_241823, ShapeOf_241910, ShapeOf_241997, ShapeOf_242084, ShapeOf_242171, ShapeOf_242258, ShapeOf_242345, ShapeOf_242432, ShapeOf_242519, ShapeOf_242606, ShapeOf_242693, ShapeOf_242780, ShapeOf_242867, ShapeOf_242954, ShapeOf_243041, ShapeOf_243128, ShapeOf_243215, ShapeOf_243302, ShapeOf_243389, ShapeOf_243476, ShapeOf_243563, ShapeOf_243650, ShapeOf_243737, ShapeOf_243824, ShapeOf_243911, ShapeOf_243998, ShapeOf_244085, ShapeOf_244172, ShapeOf_244259, ShapeOf_244346, ShapeOf_244433, ShapeOf_244520, __module.model/aten::add/Add, __module.model/aten::sub/Subtract" />
			</rt_info>
			<output>
				<port id="0" precision="I32" />
			</output>
		</layer>
		<layer id="99" name="Multiply_175686" type="Multiply" version="opset1">
			<data auto_broadcast="numpy" />
			<rt_info>
				<attribute name="fused_names" version="0" value="Constant_240522, Constant_240523, Constant_240581, Constant_240582, Constant_285907, Constant_285909, Convert_241167, Gather_240524, Gather_240583, Gather_285910, ShapeOf_240521, ShapeOf_240580, ShapeOf_241214, ShapeOf_241301, ShapeOf_241388, ShapeOf_241475, ShapeOf_241562, ShapeOf_241649, ShapeOf_241736, ShapeOf_241823, ShapeOf_241910, ShapeOf_241997, ShapeOf_242084, ShapeOf_242171, ShapeOf_242258, ShapeOf_242345, ShapeOf_242432, ShapeOf_242519, ShapeOf_242606, ShapeOf_242693, ShapeOf_242780, ShapeOf_242867, ShapeOf_242954, ShapeOf_243041, ShapeOf_243128, ShapeOf_243215, ShapeOf_243302, ShapeOf_243389, ShapeOf_243476, ShapeOf_243563, ShapeOf_243650, ShapeOf_243737, ShapeOf_243824, ShapeOf_243911, ShapeOf_243998, ShapeOf_244085, ShapeOf_244172, ShapeOf_244259, ShapeOf_244346, ShapeOf_244433, ShapeOf_244520, ShapeOf_285905, __module.model/aten::add/Add, __module.model/aten::sub/Subtract" />
			</rt_info>
			<input>
				<port id="0" precision="I32" />
				<port id="1" precision="I32" />
			</input>
			<output>
				<port id="2" precision="I32" />
			</output>
		</layer>
		<layer id="100" name="__module.model/aten::sub/Subtract" type="Add" version="opset1">
			<data auto_broadcast="numpy" />
			<rt_info>
				<attribute name="fused_names" version="0" value="Constant_240522, Constant_240523, Constant_240581, Constant_240582, Constant_285907, Constant_285909, Convert_240766, Convert_241167, Gather_240524, Gather_240583, Gather_285910, ShapeOf_240521, ShapeOf_240580, ShapeOf_241214, ShapeOf_241301, ShapeOf_241388, ShapeOf_241475, ShapeOf_241562, ShapeOf_241649, ShapeOf_241736, ShapeOf_241823, ShapeOf_241910, ShapeOf_241997, ShapeOf_242084, ShapeOf_242171, ShapeOf_242258, ShapeOf_242345, ShapeOf_242432, ShapeOf_242519, ShapeOf_242606, ShapeOf_242693, ShapeOf_242780, ShapeOf_242867, ShapeOf_242954, ShapeOf_243041, ShapeOf_243128, ShapeOf_243215, ShapeOf_243302, ShapeOf_243389, ShapeOf_243476, ShapeOf_243563, ShapeOf_243650, ShapeOf_243737, ShapeOf_243824, ShapeOf_243911, ShapeOf_243998, ShapeOf_244085, ShapeOf_244172, ShapeOf_244259, ShapeOf_244346, ShapeOf_244433, ShapeOf_244520, ShapeOf_285905, __module.model/aten::add/Add, __module.model/aten::sub/Subtract" />
			</rt_info>
			<input>
				<port id="0" precision="I32" />
				<port id="1" precision="I32" />
			</input>
			<output>
				<port id="2" precision="I32" names="378,379,past_key_values_length" />
			</output>
		</layer>
		<layer id="101" name="__module.model/aten::arange/Constant" type="Const" version="opset1">
			<data element_type="i32" shape="" offset="778567680" size="4" />
			<rt_info>
				<attribute name="fused_names" version="0" value="__module.model/aten::arange/Constant" />
			</rt_info>
			<output>
				<port id="0" precision="I32" />
			</output>
		</layer>
		<layer id="102" name="273" type="Const" version="opset1">
			<data element_type="f16" shape="" offset="836554874" size="2" />
			<rt_info>
				<attribute name="fused_names" version="0" value="273" />
			</rt_info>
			<output>
				<port id="0" precision="FP16" names="273" />
			</output>
		</layer>
		<layer id="103" name="Constant_228036" type="Const" version="opset1">
			<data element_type="i32" shape="1" offset="836554876" size="4" />
			<rt_info>
				<attribute name="fused_names" version="0" value="Constant_228036" />
				<attribute name="precise" version="0" />
			</rt_info>
			<output>
				<port id="0" precision="I32">
					<dim>1</dim>
				</port>
			</output>
		</layer>
		<layer id="104" name="__module.model/prim::ListConstruct/Concat_3" type="Broadcast" version="opset3">
			<data mode="numpy" />
			<rt_info>
				<attribute name="fused_names" version="0" value="Constant_228036, Constant_240522, Constant_240523, Constant_240526, Constant_285907, Constant_285909, Convert_241167, Gather_240524, Gather_285910, Reshape_240527, ShapeOf_240521, ShapeOf_285905, Unsqueeze_240439, __module.model.layers.0.self_attn.rotary_emb/aten::slice/Constant, __module.model/prim::ListConstruct/Concat_3" />
				<attribute name="precise" version="0" />
			</rt_info>
			<input>
				<port id="0" precision="I32">
					<dim>1</dim>
				</port>
				<port id="1" precision="I32">
					<dim>1</dim>
				</port>
			</input>
			<output>
				<port id="2" precision="I32" names="380">
					<dim>2</dim>
				</port>
			</output>
		</layer>
		<layer id="105" name="__module.model/aten::full/Broadcast" type="Broadcast" version="opset3">
			<data mode="numpy" />
			<rt_info>
				<attribute name="fused_names" version="0" value="273, Constant_228036, Constant_240522, Constant_240523, Constant_240526, Constant_285907, Constant_285909, Convert_241167, Gather_240524, Gather_285910, Reshape_240527, ShapeOf_240521, ShapeOf_285905, Unsqueeze_240439, __module.model.layers.0.self_attn.rotary_emb/aten::slice/Constant, __module.model/aten::full/Broadcast, __module.model/prim::ListConstruct/Concat_3" />
			</rt_info>
			<input>
				<port id="0" precision="FP16" />
				<port id="1" precision="I32">
					<dim>2</dim>
				</port>
			</input>
			<output>
				<port id="2" precision="FP16" names="381_1">
					<dim>-1</dim>
					<dim>-1</dim>
				</port>
			</output>
		</layer>
		<layer id="106" name="ShapeOf_167763" type="ShapeOf" version="opset3">
			<data output_type="i32" />
			<rt_info>
				<attribute name="fused_names" version="0" value="Constant_240759, Constant_240760, Gather_240761, ShapeOf_240758" />
			</rt_info>
			<input>
				<port id="0" precision="FP16">
					<dim>-1</dim>
					<dim>-1</dim>
				</port>
			</input>
			<output>
				<port id="1" precision="I32">
					<dim>2</dim>
				</port>
			</output>
		</layer>
		<layer id="107" name="Constant_167764" type="Const" version="opset1">
			<data element_type="i32" shape="" offset="836534352" size="4" />
			<rt_info>
				<attribute name="fused_names" version="0" value="Constant_240759, Constant_240760, Gather_240761, ShapeOf_240758" />
			</rt_info>
			<output>
				<port id="0" precision="I32" />
			</output>
		</layer>
		<layer id="108" name="Constant_167765" type="Const" version="opset1">
			<data element_type="i32" shape="" offset="778567680" size="4" />
			<rt_info>
				<attribute name="fused_names" version="0" value="Constant_240759, Constant_240760, Gather_240761, ShapeOf_240758" />
			</rt_info>
			<output>
				<port id="0" precision="I32" />
			</output>
		</layer>
		<layer id="109" name="Gather_167766" type="Gather" version="opset8">
			<data batch_dims="0" />
			<rt_info>
				<attribute name="fused_names" version="0" value="Constant_240759, Constant_240760, Gather_240761, ShapeOf_240758" />
			</rt_info>
			<input>
				<port id="0" precision="I32">
					<dim>2</dim>
				</port>
				<port id="1" precision="I32" />
				<port id="2" precision="I32" />
			</input>
			<output>
				<port id="3" precision="I32" names="382,385" />
			</output>
		</layer>
		<layer id="110" name="__module.model/aten::arange/Constant_1" type="Const" version="opset1">
			<data element_type="i32" shape="" offset="836534352" size="4" />
			<rt_info>
				<attribute name="fused_names" version="0" value="__module.model/aten::arange/Constant_1" />
			</rt_info>
			<output>
				<port id="0" precision="I32" />
			</output>
		</layer>
		<layer id="111" name="__module.model/aten::arange/Range" type="Range" version="opset4">
			<data output_type="f16" />
			<rt_info>
				<attribute name="fused_names" version="0" value="Constant_240759, Constant_240760, Gather_240761, ShapeOf_240758, __module.model/aten::arange/Constant, __module.model/aten::arange/Constant_1, __module.model/aten::arange/Range" />
			</rt_info>
			<input>
				<port id="0" precision="I32" />
				<port id="1" precision="I32" />
				<port id="2" precision="I32" />
			</input>
			<output>
				<port id="3" precision="FP16">
					<dim>-1</dim>
				</port>
			</output>
		</layer>
		<layer id="112" name="__module.model/aten::arange/ConvertLike" type="Convert" version="opset1">
			<data destination_type="i32" />
			<rt_info>
				<attribute name="fused_names" version="0" value="Constant_240759, Constant_240760, Gather_240761, ShapeOf_240758, __module.model/aten::arange/Constant, __module.model/aten::arange/Constant_1, __module.model/aten::arange/ConvertLike, __module.model/aten::arange/Range" />
			</rt_info>
			<input>
				<port id="0" precision="FP16">
					<dim>-1</dim>
				</port>
			</input>
			<output>
				<port id="1" precision="I32" names="383,mask_cond">
					<dim>-1</dim>
				</port>
			</output>
		</layer>
		<layer id="113" name="Constant_232218" type="Const" version="opset1">
			<data element_type="i32" shape="1" offset="836534352" size="4" />
			<rt_info>
				<attribute name="fused_names" version="0" value="Constant_232218" />
			</rt_info>
			<output>
				<port id="0" precision="I32">
					<dim>1</dim>
				</port>
			</output>
		</layer>
		<layer id="114" name="__module.model/aten::add/Add_1" type="Add" version="opset1">
			<data auto_broadcast="numpy" />
			<rt_info>
				<attribute name="fused_names" version="0" value="Constant_232218, Constant_240759, Constant_240760, Gather_240761, ShapeOf_240758, __module.model/aten::add/Add_1, __module.model/aten::arange/Constant, __module.model/aten::arange/Constant_1, __module.model/aten::arange/ConvertLike, __module.model/aten::arange/Range" />
			</rt_info>
			<input>
				<port id="0" precision="I32">
					<dim>-1</dim>
				</port>
				<port id="1" precision="I32">
					<dim>1</dim>
				</port>
			</input>
			<output>
				<port id="2" precision="I32" names="384">
					<dim>-1</dim>
				</port>
			</output>
		</layer>
		<layer id="115" name="Constant_244569" type="Const" version="opset1">
			<data element_type="i32" shape="2" offset="836554880" size="8" />
			<rt_info>
				<attribute name="fused_names" version="0" value="Constant_244569" />
			</rt_info>
			<output>
				<port id="0" precision="I32">
					<dim>2</dim>
				</port>
			</output>
		</layer>
		<layer id="116" name="__module.model/aten::view/Reshape_1" type="Reshape" version="opset1">
			<data special_zero="true" />
			<rt_info>
				<attribute name="fused_names" version="0" value="Constant_232218, Constant_240759, Constant_240760, Constant_244569, Gather_240761, ShapeOf_240758, __module.model/aten::add/Add_1, __module.model/aten::arange/Constant, __module.model/aten::arange/Constant_1, __module.model/aten::arange/ConvertLike, __module.model/aten::arange/Range, __module.model/aten::view/Reshape_1" />
			</rt_info>
			<input>
				<port id="0" precision="I32">
					<dim>-1</dim>
				</port>
				<port id="1" precision="I32">
					<dim>2</dim>
				</port>
			</input>
			<output>
				<port id="2" precision="I32" names="387">
					<dim>-1</dim>
					<dim>1</dim>
				</port>
			</output>
		</layer>
		<layer id="117" name="__module.model/aten::lt/Less" type="Less" version="type_relaxed_opset">
			<data type_relax="true" input_data_types="" output_data_types="u8" auto_broadcast="numpy" />
			<rt_info>
				<attribute name="fused_names" version="0" value="Constant_232218, Constant_240759, Constant_240760, Constant_244569, Gather_240761, ShapeOf_240758, __module.model/aten::add/Add_1, __module.model/aten::arange/Constant, __module.model/aten::arange/Constant_1, __module.model/aten::arange/ConvertLike, __module.model/aten::arange/Range, __module.model/aten::lt/Less, __module.model/aten::view/Reshape_1" />
			</rt_info>
			<input>
				<port id="0" precision="I32">
					<dim>-1</dim>
				</port>
				<port id="1" precision="I32">
					<dim>-1</dim>
					<dim>1</dim>
				</port>
			</input>
			<output>
				<port id="2" precision="U8" names="388">
					<dim>-1</dim>
					<dim>-1</dim>
				</port>
			</output>
		</layer>
		<layer id="118" name="__module.model/aten::masked_fill_/ConvertLike_compressed" type="Const" version="opset1">
			<data element_type="f16" shape="" offset="836534356" size="2" />
			<rt_info>
				<attribute name="fused_names" version="0" value="__module.model/aten::masked_fill_/ConvertLike, __module.model/aten::masked_fill_/ConvertLike_compressed" />
			</rt_info>
			<output>
				<port id="0" precision="FP16" />
			</output>
		</layer>
		<layer id="119" name="__module.model/aten::masked_fill_/Select" type="Select" version="type_relaxed_opset">
			<data type_relax="true" input_data_types="boolean, undefined, undefined" output_data_types="" auto_broadcast="numpy" />
			<rt_info>
				<attribute name="fused_names" version="0" value="273, Constant_228036, Constant_232218, Constant_240522, Constant_240523, Constant_240526, Constant_240759, Constant_240760, Constant_244569, Constant_285907, Constant_285909, Convert_241167, Gather_240524, Gather_240761, Gather_285910, Reshape_240527, ShapeOf_240521, ShapeOf_240758, ShapeOf_285905, Unsqueeze_240439, __module.model.layers.0.self_attn.rotary_emb/aten::slice/Constant, __module.model/aten::add/Add_1, __module.model/aten::arange/Constant, __module.model/aten::arange/Constant_1, __module.model/aten::arange/ConvertLike, __module.model/aten::arange/Range, __module.model/aten::full/Broadcast, __module.model/aten::lt/Less, __module.model/aten::masked_fill_/ConvertLike, __module.model/aten::masked_fill_/ConvertLike_compressed, __module.model/aten::masked_fill_/Select, __module.model/aten::view/Reshape_1, __module.model/prim::ListConstruct/Concat_3" />
			</rt_info>
			<input>
				<port id="0" precision="U8">
					<dim>-1</dim>
					<dim>-1</dim>
				</port>
				<port id="1" precision="FP16" />
				<port id="2" precision="FP16">
					<dim>-1</dim>
					<dim>-1</dim>
				</port>
			</input>
			<output>
				<port id="3" precision="FP16" names="381,390,mask.1">
					<dim>-1</dim>
					<dim>-1</dim>
				</port>
			</output>
		</layer>
		<layer id="120" name="ShapeOf_167768" type="ShapeOf" version="opset3">
			<data output_type="i32" />
			<rt_info>
				<attribute name="fused_names" version="0" value="Constant_240768, Constant_240769, Gather_240770, ShapeOf_240767" />
			</rt_info>
			<input>
				<port id="0" precision="FP16">
					<dim>-1</dim>
					<dim>-1</dim>
				</port>
			</input>
			<output>
				<port id="1" precision="I32">
					<dim>2</dim>
				</port>
			</output>
		</layer>
		<layer id="121" name="Constant_167769" type="Const" version="opset1">
			<data element_type="i32" shape="" offset="836534352" size="4" />
			<rt_info>
				<attribute name="fused_names" version="0" value="Constant_240768, Constant_240769, Gather_240770, ShapeOf_240767" />
			</rt_info>
			<output>
				<port id="0" precision="I32" />
			</output>
		</layer>
		<layer id="122" name="Constant_167770" type="Const" version="opset1">
			<data element_type="i32" shape="" offset="778567680" size="4" />
			<rt_info>
				<attribute name="fused_names" version="0" value="Constant_240768, Constant_240769, Gather_240770, ShapeOf_240767" />
			</rt_info>
			<output>
				<port id="0" precision="I32" />
			</output>
		</layer>
		<layer id="123" name="Gather_167771" type="Gather" version="opset8">
			<data batch_dims="0" />
			<rt_info>
				<attribute name="fused_names" version="0" value="Constant_240768, Constant_240769, Gather_240770, ShapeOf_240767" />
			</rt_info>
			<input>
				<port id="0" precision="I32">
					<dim>2</dim>
				</port>
				<port id="1" precision="I32" />
				<port id="2" precision="I32" />
			</input>
			<output>
				<port id="3" precision="I32" />
			</output>
		</layer>
		<layer id="124" name="Add_240771" type="Add" version="opset1">
			<data auto_broadcast="numpy" />
			<rt_info>
				<attribute name="fused_names" version="0" value="Add_240771, Constant_240522, Constant_240523, Constant_240581, Constant_240582, Constant_240768, Constant_240769, Constant_285907, Constant_285909, Convert_240766, Convert_241167, Gather_240524, Gather_240583, Gather_240770, Gather_285910, ShapeOf_240521, ShapeOf_240580, ShapeOf_240767, ShapeOf_241214, ShapeOf_241301, ShapeOf_241388, ShapeOf_241475, ShapeOf_241562, ShapeOf_241649, ShapeOf_241736, ShapeOf_241823, ShapeOf_241910, ShapeOf_241997, ShapeOf_242084, ShapeOf_242171, ShapeOf_242258, ShapeOf_242345, ShapeOf_242432, ShapeOf_242519, ShapeOf_242606, ShapeOf_242693, ShapeOf_242780, ShapeOf_242867, ShapeOf_242954, ShapeOf_243041, ShapeOf_243128, ShapeOf_243215, ShapeOf_243302, ShapeOf_243389, ShapeOf_243476, ShapeOf_243563, ShapeOf_243650, ShapeOf_243737, ShapeOf_243824, ShapeOf_243911, ShapeOf_243998, ShapeOf_244085, ShapeOf_244172, ShapeOf_244259, ShapeOf_244346, ShapeOf_244433, ShapeOf_244520, ShapeOf_285905, __module.model/aten::add/Add, __module.model/aten::sub/Subtract" />
			</rt_info>
			<input>
				<port id="0" precision="I32" />
				<port id="1" precision="I32" />
			</input>
			<output>
				<port id="2" precision="I32" />
			</output>
		</layer>
		<layer id="125" name="__module.model/aten::triu/Constant_2" type="Const" version="opset1">
			<data element_type="i32" shape="" offset="836534352" size="4" />
			<rt_info>
				<attribute name="fused_names" version="0" value="__module.model/aten::triu/Constant_2" />
			</rt_info>
			<output>
				<port id="0" precision="I32" />
			</output>
		</layer>
		<layer id="126" name="__module.model/aten::triu/Range" type="Range" version="opset4">
			<data output_type="i32" />
			<rt_info>
				<attribute name="fused_names" version="0" value="Add_240771, Constant_240522, Constant_240523, Constant_240581, Constant_240582, Constant_240768, Constant_240769, Constant_285907, Constant_285909, Convert_240766, Convert_241167, Gather_240524, Gather_240583, Gather_240770, Gather_285910, ShapeOf_240521, ShapeOf_240580, ShapeOf_240767, ShapeOf_241214, ShapeOf_241301, ShapeOf_241388, ShapeOf_241475, ShapeOf_241562, ShapeOf_241649, ShapeOf_241736, ShapeOf_241823, ShapeOf_241910, ShapeOf_241997, ShapeOf_242084, ShapeOf_242171, ShapeOf_242258, ShapeOf_242345, ShapeOf_242432, ShapeOf_242519, ShapeOf_242606, ShapeOf_242693, ShapeOf_242780, ShapeOf_242867, ShapeOf_242954, ShapeOf_243041, ShapeOf_243128, ShapeOf_243215, ShapeOf_243302, ShapeOf_243389, ShapeOf_243476, ShapeOf_243563, ShapeOf_243650, ShapeOf_243737, ShapeOf_243824, ShapeOf_243911, ShapeOf_243998, ShapeOf_244085, ShapeOf_244172, ShapeOf_244259, ShapeOf_244346, ShapeOf_244433, ShapeOf_244520, ShapeOf_285905, __module.model/aten::add/Add, __module.model/aten::sub/Subtract, __module.model/aten::triu/Constant, __module.model/aten::triu/Constant_2, __module.model/aten::triu/Range" />
			</rt_info>
			<input>
				<port id="0" precision="I32" />
				<port id="1" precision="I32" />
				<port id="2" precision="I32" />
			</input>
			<output>
				<port id="3" precision="I32">
					<dim>-1</dim>
				</port>
			</output>
		</layer>
		<layer id="127" name="Constant_120019" type="Const" version="opset1">
			<data element_type="i32" shape="2" offset="836554888" size="8" />
			<rt_info>
				<attribute name="fused_names" version="0" value="Add_240771, Constant_240522, Constant_240523, Constant_240581, Constant_240582, Constant_240768, Constant_240769, Convert_240766, Gather_240524, Gather_240583, Gather_240770, ShapeOf_240521, ShapeOf_240580, ShapeOf_240767, __module.model/aten::add/Add, __module.model/aten::sub/Subtract, __module.model/aten::triu/Constant, __module.model/aten::triu/Constant_2, __module.model/aten::triu/Range, __module.model/aten::triu/Unsqueeze" />
			</rt_info>
			<output>
				<port id="0" precision="I32">
					<dim>2</dim>
				</port>
			</output>
		</layer>
		<layer id="128" name="__module.model/aten::triu/Unsqueeze" type="Reshape" version="opset1">
			<data special_zero="false" />
			<rt_info>
				<attribute name="fused_names" version="0" value="Add_240771, Constant_240522, Constant_240523, Constant_240581, Constant_240582, Constant_240768, Constant_240769, Constant_285907, Constant_285909, Convert_240766, Convert_241167, Gather_240524, Gather_240583, Gather_240770, Gather_285910, ShapeOf_240521, ShapeOf_240580, ShapeOf_240767, ShapeOf_241214, ShapeOf_241301, ShapeOf_241388, ShapeOf_241475, ShapeOf_241562, ShapeOf_241649, ShapeOf_241736, ShapeOf_241823, ShapeOf_241910, ShapeOf_241997, ShapeOf_242084, ShapeOf_242171, ShapeOf_242258, ShapeOf_242345, ShapeOf_242432, ShapeOf_242519, ShapeOf_242606, ShapeOf_242693, ShapeOf_242780, ShapeOf_242867, ShapeOf_242954, ShapeOf_243041, ShapeOf_243128, ShapeOf_243215, ShapeOf_243302, ShapeOf_243389, ShapeOf_243476, ShapeOf_243563, ShapeOf_243650, ShapeOf_243737, ShapeOf_243824, ShapeOf_243911, ShapeOf_243998, ShapeOf_244085, ShapeOf_244172, ShapeOf_244259, ShapeOf_244346, ShapeOf_244433, ShapeOf_244520, ShapeOf_285905, __module.model/aten::add/Add, __module.model/aten::sub/Subtract, __module.model/aten::triu/Constant, __module.model/aten::triu/Constant_2, __module.model/aten::triu/Range, __module.model/aten::triu/Unsqueeze" />
			</rt_info>
			<input>
				<port id="0" precision="I32">
					<dim>-1</dim>
				</port>
				<port id="1" precision="I32">
					<dim>2</dim>
				</port>
			</input>
			<output>
				<port id="2" precision="I32">
					<dim>1</dim>
					<dim>-1</dim>
				</port>
			</output>
		</layer>
		<layer id="129" name="Constant_231051" type="Const" version="opset1">
			<data element_type="i32" shape="" offset="836554896" size="4" />
			<rt_info>
				<attribute name="fused_names" version="0" value="Constant_231051" />
			</rt_info>
			<output>
				<port id="0" precision="I32" />
			</output>
		</layer>
		<layer id="130" name="__module.model/aten::add/Add_2" type="Add" version="opset1">
			<data auto_broadcast="numpy" />
			<rt_info>
				<attribute name="fused_names" version="0" value="Constant_231051, Constant_240522, Constant_240523, Constant_240581, Constant_240582, Constant_285907, Constant_285909, Convert_240766, Convert_240972, Convert_241167, Gather_240524, Gather_240583, Gather_285910, ShapeOf_240521, ShapeOf_240580, ShapeOf_241214, ShapeOf_241301, ShapeOf_241388, ShapeOf_241475, ShapeOf_241562, ShapeOf_241649, ShapeOf_241736, ShapeOf_241823, ShapeOf_241910, ShapeOf_241997, ShapeOf_242084, ShapeOf_242171, ShapeOf_242258, ShapeOf_242345, ShapeOf_242432, ShapeOf_242519, ShapeOf_242606, ShapeOf_242693, ShapeOf_242780, ShapeOf_242867, ShapeOf_242954, ShapeOf_243041, ShapeOf_243128, ShapeOf_243215, ShapeOf_243302, ShapeOf_243389, ShapeOf_243476, ShapeOf_243563, ShapeOf_243650, ShapeOf_243737, ShapeOf_243824, ShapeOf_243911, ShapeOf_243998, ShapeOf_244085, ShapeOf_244172, ShapeOf_244259, ShapeOf_244346, ShapeOf_244433, ShapeOf_244520, ShapeOf_285905, __module.model/aten::add/Add, __module.model/aten::add/Add_2, __module.model/aten::sub/Subtract" />
			</rt_info>
			<input>
				<port id="0" precision="I32" />
				<port id="1" precision="I32" />
			</input>
			<output>
				<port id="2" precision="I32" names="396,397" />
			</output>
		</layer>
		<layer id="131" name="__module.model/aten::triu/Add" type="Add" version="opset1">
			<data auto_broadcast="numpy" />
			<rt_info>
				<attribute name="fused_names" version="0" value="Constant_231051, Constant_240522, Constant_240523, Constant_240581, Constant_240582, Constant_285907, Constant_285909, Convert_240766, Convert_240972, Convert_241167, Gather_240524, Gather_240583, Gather_285910, ShapeOf_240521, ShapeOf_240580, ShapeOf_241214, ShapeOf_241301, ShapeOf_241388, ShapeOf_241475, ShapeOf_241562, ShapeOf_241649, ShapeOf_241736, ShapeOf_241823, ShapeOf_241910, ShapeOf_241997, ShapeOf_242084, ShapeOf_242171, ShapeOf_242258, ShapeOf_242345, ShapeOf_242432, ShapeOf_242519, ShapeOf_242606, ShapeOf_242693, ShapeOf_242780, ShapeOf_242867, ShapeOf_242954, ShapeOf_243041, ShapeOf_243128, ShapeOf_243215, ShapeOf_243302, ShapeOf_243389, ShapeOf_243476, ShapeOf_243563, ShapeOf_243650, ShapeOf_243737, ShapeOf_243824, ShapeOf_243911, ShapeOf_243998, ShapeOf_244085, ShapeOf_244172, ShapeOf_244259, ShapeOf_244346, ShapeOf_244433, ShapeOf_244520, ShapeOf_285905, __module.model/aten::add/Add, __module.model/aten::add/Add_2, __module.model/aten::sub/Subtract, __module.model/aten::triu/Add" />
			</rt_info>
			<input>
				<port id="0" precision="I32" />
				<port id="1" precision="I32" />
			</input>
			<output>
				<port id="2" precision="I32" />
			</output>
		</layer>
		<layer id="132" name="__module.model/aten::triu/Range_1" type="Range" version="opset4">
			<data output_type="i32" />
			<rt_info>
				<attribute name="fused_names" version="0" value="Constant_231051, Constant_240522, Constant_240523, Constant_240581, Constant_240582, Constant_285907, Constant_285909, Convert_240766, Convert_240972, Convert_241167, Gather_240524, Gather_240583, Gather_285910, ShapeOf_240521, ShapeOf_240580, ShapeOf_241214, ShapeOf_241301, ShapeOf_241388, ShapeOf_241475, ShapeOf_241562, ShapeOf_241649, ShapeOf_241736, ShapeOf_241823, ShapeOf_241910, ShapeOf_241997, ShapeOf_242084, ShapeOf_242171, ShapeOf_242258, ShapeOf_242345, ShapeOf_242432, ShapeOf_242519, ShapeOf_242606, ShapeOf_242693, ShapeOf_242780, ShapeOf_242867, ShapeOf_242954, ShapeOf_243041, ShapeOf_243128, ShapeOf_243215, ShapeOf_243302, ShapeOf_243389, ShapeOf_243476, ShapeOf_243563, ShapeOf_243650, ShapeOf_243737, ShapeOf_243824, ShapeOf_243911, ShapeOf_243998, ShapeOf_244085, ShapeOf_244172, ShapeOf_244259, ShapeOf_244346, ShapeOf_244433, ShapeOf_244520, ShapeOf_285905, __module.model/aten::add/Add, __module.model/aten::add/Add_2, __module.model/aten::sub/Subtract, __module.model/aten::triu/Add, __module.model/aten::triu/Constant_2, __module.model/aten::triu/Range_1" />
			</rt_info>
			<input>
				<port id="0" precision="I32" />
				<port id="1" precision="I32" />
				<port id="2" precision="I32" />
			</input>
			<output>
				<port id="3" precision="I32">
					<dim>-1</dim>
				</port>
			</output>
		</layer>
		<layer id="133" name="Constant_120021" type="Const" version="opset1">
			<data element_type="i32" shape="2" offset="836554880" size="8" />
			<rt_info>
				<attribute name="fused_names" version="0" value="Constant_231051, Constant_240522, Constant_240523, Constant_240581, Constant_240582, Convert_240972, Convert_241167, Gather_240524, Gather_240583, ShapeOf_240521, ShapeOf_240580, __module.model/aten::add/Add, __module.model/aten::add/Add_2, __module.model/aten::sub/Subtract, __module.model/aten::triu/Add, __module.model/aten::triu/Constant_2, __module.model/aten::triu/Range_1, __module.model/aten::triu/Unsqueeze_1" />
			</rt_info>
			<output>
				<port id="0" precision="I32">
					<dim>2</dim>
				</port>
			</output>
		</layer>
		<layer id="134" name="__module.model/aten::triu/Unsqueeze_1" type="Reshape" version="opset1">
			<data special_zero="false" />
			<rt_info>
				<attribute name="fused_names" version="0" value="Constant_231051, Constant_240522, Constant_240523, Constant_240581, Constant_240582, Constant_285907, Constant_285909, Convert_240766, Convert_240972, Convert_241167, Gather_240524, Gather_240583, Gather_285910, ShapeOf_240521, ShapeOf_240580, ShapeOf_241214, ShapeOf_241301, ShapeOf_241388, ShapeOf_241475, ShapeOf_241562, ShapeOf_241649, ShapeOf_241736, ShapeOf_241823, ShapeOf_241910, ShapeOf_241997, ShapeOf_242084, ShapeOf_242171, ShapeOf_242258, ShapeOf_242345, ShapeOf_242432, ShapeOf_242519, ShapeOf_242606, ShapeOf_242693, ShapeOf_242780, ShapeOf_242867, ShapeOf_242954, ShapeOf_243041, ShapeOf_243128, ShapeOf_243215, ShapeOf_243302, ShapeOf_243389, ShapeOf_243476, ShapeOf_243563, ShapeOf_243650, ShapeOf_243737, ShapeOf_243824, ShapeOf_243911, ShapeOf_243998, ShapeOf_244085, ShapeOf_244172, ShapeOf_244259, ShapeOf_244346, ShapeOf_244433, ShapeOf_244520, ShapeOf_285905, __module.model/aten::add/Add, __module.model/aten::add/Add_2, __module.model/aten::sub/Subtract, __module.model/aten::triu/Add, __module.model/aten::triu/Constant_2, __module.model/aten::triu/Range_1, __module.model/aten::triu/Unsqueeze_1" />
			</rt_info>
			<input>
				<port id="0" precision="I32">
					<dim>-1</dim>
				</port>
				<port id="1" precision="I32">
					<dim>2</dim>
				</port>
			</input>
			<output>
				<port id="2" precision="I32">
					<dim>-1</dim>
					<dim>1</dim>
				</port>
			</output>
		</layer>
		<layer id="135" name="__module.model/aten::triu/GreaterEqual" type="GreaterEqual" version="type_relaxed_opset">
			<data type_relax="true" input_data_types="" output_data_types="u8" auto_broadcast="numpy" />
			<rt_info>
				<attribute name="fused_names" version="0" value="Add_240771, Constant_231051, Constant_240522, Constant_240523, Constant_240581, Constant_240582, Constant_240768, Constant_240769, Constant_285907, Constant_285909, Convert_240766, Convert_240972, Convert_241167, Gather_240524, Gather_240583, Gather_240770, Gather_285910, ShapeOf_240521, ShapeOf_240580, ShapeOf_240767, ShapeOf_241214, ShapeOf_241301, ShapeOf_241388, ShapeOf_241475, ShapeOf_241562, ShapeOf_241649, ShapeOf_241736, ShapeOf_241823, ShapeOf_241910, ShapeOf_241997, ShapeOf_242084, ShapeOf_242171, ShapeOf_242258, ShapeOf_242345, ShapeOf_242432, ShapeOf_242519, ShapeOf_242606, ShapeOf_242693, ShapeOf_242780, ShapeOf_242867, ShapeOf_242954, ShapeOf_243041, ShapeOf_243128, ShapeOf_243215, ShapeOf_243302, ShapeOf_243389, ShapeOf_243476, ShapeOf_243563, ShapeOf_243650, ShapeOf_243737, ShapeOf_243824, ShapeOf_243911, ShapeOf_243998, ShapeOf_244085, ShapeOf_244172, ShapeOf_244259, ShapeOf_244346, ShapeOf_244433, ShapeOf_244520, ShapeOf_285905, __module.model/aten::add/Add, __module.model/aten::add/Add_2, __module.model/aten::sub/Subtract, __module.model/aten::triu/Add, __module.model/aten::triu/Constant, __module.model/aten::triu/Constant_2, __module.model/aten::triu/GreaterEqual, __module.model/aten::triu/Range, __module.model/aten::triu/Range_1, __module.model/aten::triu/Unsqueeze, __module.model/aten::triu/Unsqueeze_1" />
			</rt_info>
			<input>
				<port id="0" precision="I32">
					<dim>1</dim>
					<dim>-1</dim>
				</port>
				<port id="1" precision="I32">
					<dim>-1</dim>
					<dim>1</dim>
				</port>
			</input>
			<output>
				<port id="2" precision="U8">
					<dim>-1</dim>
					<dim>-1</dim>
				</port>
			</output>
		</layer>
		<layer id="136" name="__module.model/aten::ones_like/Convert" type="Const" version="opset1">
			<data element_type="i32" shape="" offset="836534352" size="4" />
			<rt_info>
				<attribute name="fused_names" version="0" value="__module.model/aten::ones_like/Convert" />
			</rt_info>
			<output>
				<port id="0" precision="I32" />
			</output>
		</layer>
		<layer id="137" name="__module.model/aten::zeros/Convert_compressed" type="Const" version="opset1">
			<data element_type="f16" shape="" offset="836534356" size="2" />
			<rt_info>
				<attribute name="fused_names" version="0" value="__module.model/aten::zeros/Convert, __module.model/aten::zeros/Convert_compressed" />
			</rt_info>
			<output>
				<port id="0" precision="FP16" />
			</output>
		</layer>
		<layer id="138" name="Constant_167975" type="Const" version="opset1">
			<data element_type="i32" shape="1" offset="836534352" size="4" />
			<rt_info>
				<attribute name="fused_names" version="0" value="Constant_240522, Constant_240523, Constant_240581, Constant_240582, Constant_240626, Gather_240524, Gather_240583, Reshape_240627, ShapeOf_240521, ShapeOf_240580, ShapeOf_241214, ShapeOf_241301, ShapeOf_241388, ShapeOf_241475, ShapeOf_241562, ShapeOf_241649, ShapeOf_241736, ShapeOf_241823, ShapeOf_241910, ShapeOf_241997, ShapeOf_242084, ShapeOf_242171, ShapeOf_242258, ShapeOf_242345, ShapeOf_242432, ShapeOf_242519, ShapeOf_242606, ShapeOf_242693, ShapeOf_242780, ShapeOf_242867, ShapeOf_242954, ShapeOf_243041, ShapeOf_243128, ShapeOf_243215, ShapeOf_243302, ShapeOf_243389, ShapeOf_243476, ShapeOf_243563, ShapeOf_243650, ShapeOf_243737, ShapeOf_243824, ShapeOf_243911, ShapeOf_243998, ShapeOf_244085, ShapeOf_244172, ShapeOf_244259, ShapeOf_244346, ShapeOf_244433, ShapeOf_244520, __module.model/aten::add/Add, __module.model/aten::sub/Subtract" />
			</rt_info>
			<output>
				<port id="0" precision="I32">
					<dim>1</dim>
				</port>
			</output>
		</layer>
		<layer id="139" name="Reshape_167976" type="Reshape" version="opset1">
			<data special_zero="false" />
			<rt_info>
				<attribute name="fused_names" version="0" value="Constant_240522, Constant_240523, Constant_240581, Constant_240582, Constant_240626, Constant_285907, Constant_285909, Convert_240766, Convert_241167, Gather_240524, Gather_240583, Gather_285910, Reshape_240627, ShapeOf_240521, ShapeOf_240580, ShapeOf_241214, ShapeOf_241301, ShapeOf_241388, ShapeOf_241475, ShapeOf_241562, ShapeOf_241649, ShapeOf_241736, ShapeOf_241823, ShapeOf_241910, ShapeOf_241997, ShapeOf_242084, ShapeOf_242171, ShapeOf_242258, ShapeOf_242345, ShapeOf_242432, ShapeOf_242519, ShapeOf_242606, ShapeOf_242693, ShapeOf_242780, ShapeOf_242867, ShapeOf_242954, ShapeOf_243041, ShapeOf_243128, ShapeOf_243215, ShapeOf_243302, ShapeOf_243389, ShapeOf_243476, ShapeOf_243563, ShapeOf_243650, ShapeOf_243737, ShapeOf_243824, ShapeOf_243911, ShapeOf_243998, ShapeOf_244085, ShapeOf_244172, ShapeOf_244259, ShapeOf_244346, ShapeOf_244433, ShapeOf_244520, ShapeOf_285905, __module.model/aten::add/Add, __module.model/aten::sub/Subtract" />
			</rt_info>
			<input>
				<port id="0" precision="I32" />
				<port id="1" precision="I32">
					<dim>1</dim>
				</port>
			</input>
			<output>
				<port id="2" precision="I32">
					<dim>1</dim>
				</port>
			</output>
		</layer>
		<layer id="140" name="__module.model/prim::ListConstruct/Concat_2" type="Concat" version="opset1">
			<data axis="0" />
			<rt_info>
				<attribute name="fused_names" version="0" value="Constant_240522, Constant_240523, Constant_240526, Constant_240581, Constant_240582, Constant_240626, Constant_285907, Constant_285909, Convert_240766, Convert_241167, Gather_240524, Gather_240583, Gather_285910, Reshape_240527, Reshape_240627, ShapeOf_240521, ShapeOf_240580, ShapeOf_241214, ShapeOf_241301, ShapeOf_241388, ShapeOf_241475, ShapeOf_241562, ShapeOf_241649, ShapeOf_241736, ShapeOf_241823, ShapeOf_241910, ShapeOf_241997, ShapeOf_242084, ShapeOf_242171, ShapeOf_242258, ShapeOf_242345, ShapeOf_242432, ShapeOf_242519, ShapeOf_242606, ShapeOf_242693, ShapeOf_242780, ShapeOf_242867, ShapeOf_242954, ShapeOf_243041, ShapeOf_243128, ShapeOf_243215, ShapeOf_243302, ShapeOf_243389, ShapeOf_243476, ShapeOf_243563, ShapeOf_243650, ShapeOf_243737, ShapeOf_243824, ShapeOf_243911, ShapeOf_243998, ShapeOf_244085, ShapeOf_244172, ShapeOf_244259, ShapeOf_244346, ShapeOf_244433, ShapeOf_244520, ShapeOf_285905, Unsqueeze_240439, __module.model.layers.0.self_attn.rotary_emb/aten::slice/Constant, __module.model/aten::add/Add, __module.model/aten::sub/Subtract, __module.model/prim::ListConstruct/Concat_2" />
				<attribute name="precise" version="0" />
			</rt_info>
			<input>
				<port id="0" precision="I32">
					<dim>1</dim>
				</port>
				<port id="1" precision="I32">
					<dim>1</dim>
				</port>
			</input>
			<output>
				<port id="2" precision="I32" names="391">
					<dim>2</dim>
				</port>
			</output>
		</layer>
		<layer id="141" name="__module.model/aten::zeros/Broadcast" type="Broadcast" version="opset3">
			<data mode="numpy" />
			<rt_info>
				<attribute name="fused_names" version="0" value="Constant_240522, Constant_240523, Constant_240526, Constant_240581, Constant_240582, Constant_240626, Constant_285907, Constant_285909, Convert_240766, Convert_241167, Gather_240524, Gather_240583, Gather_285910, Reshape_240527, Reshape_240627, ShapeOf_240521, ShapeOf_240580, ShapeOf_241214, ShapeOf_241301, ShapeOf_241388, ShapeOf_241475, ShapeOf_241562, ShapeOf_241649, ShapeOf_241736, ShapeOf_241823, ShapeOf_241910, ShapeOf_241997, ShapeOf_242084, ShapeOf_242171, ShapeOf_242258, ShapeOf_242345, ShapeOf_242432, ShapeOf_242519, ShapeOf_242606, ShapeOf_242693, ShapeOf_242780, ShapeOf_242867, ShapeOf_242954, ShapeOf_243041, ShapeOf_243128, ShapeOf_243215, ShapeOf_243302, ShapeOf_243389, ShapeOf_243476, ShapeOf_243563, ShapeOf_243650, ShapeOf_243737, ShapeOf_243824, ShapeOf_243911, ShapeOf_243998, ShapeOf_244085, ShapeOf_244172, ShapeOf_244259, ShapeOf_244346, ShapeOf_244433, ShapeOf_244520, ShapeOf_285905, Unsqueeze_240439, __module.model.layers.0.self_attn.rotary_emb/aten::slice/Constant, __module.model/aten::add/Add, __module.model/aten::sub/Subtract, __module.model/aten::zeros/Broadcast, __module.model/aten::zeros/Convert, __module.model/aten::zeros/Convert_compressed, __module.model/prim::ListConstruct/Concat_2" />
			</rt_info>
			<input>
				<port id="0" precision="FP16" />
				<port id="1" precision="I32">
					<dim>2</dim>
				</port>
			</input>
			<output>
				<port id="2" precision="FP16" names="392">
					<dim>-1</dim>
					<dim>-1</dim>
				</port>
			</output>
		</layer>
		<layer id="142" name="__module.model/aten::cat/Concat" type="Concat" version="opset1">
			<data axis="-1" />
			<rt_info>
				<attribute name="fused_names" version="0" value="273, Constant_228036, Constant_232218, Constant_240522, Constant_240523, Constant_240526, Constant_240581, Constant_240582, Constant_240626, Constant_240759, Constant_240760, Constant_244569, Constant_285907, Constant_285909, Convert_240766, Convert_241167, Gather_240524, Gather_240583, Gather_240761, Gather_285910, Reshape_240527, Reshape_240627, ShapeOf_240521, ShapeOf_240580, ShapeOf_240758, ShapeOf_241214, ShapeOf_241301, ShapeOf_241388, ShapeOf_241475, ShapeOf_241562, ShapeOf_241649, ShapeOf_241736, ShapeOf_241823, ShapeOf_241910, ShapeOf_241997, ShapeOf_242084, ShapeOf_242171, ShapeOf_242258, ShapeOf_242345, ShapeOf_242432, ShapeOf_242519, ShapeOf_242606, ShapeOf_242693, ShapeOf_242780, ShapeOf_242867, ShapeOf_242954, ShapeOf_243041, ShapeOf_243128, ShapeOf_243215, ShapeOf_243302, ShapeOf_243389, ShapeOf_243476, ShapeOf_243563, ShapeOf_243650, ShapeOf_243737, ShapeOf_243824, ShapeOf_243911, ShapeOf_243998, ShapeOf_244085, ShapeOf_244172, ShapeOf_244259, ShapeOf_244346, ShapeOf_244433, ShapeOf_244520, ShapeOf_285905, Unsqueeze_240439, __module.model.layers.0.self_attn.rotary_emb/aten::slice/Constant, __module.model/aten::add/Add, __module.model/aten::add/Add_1, __module.model/aten::arange/Constant, __module.model/aten::arange/Constant_1, __module.model/aten::arange/ConvertLike, __module.model/aten::arange/Range, __module.model/aten::cat/Concat, __module.model/aten::full/Broadcast, __module.model/aten::lt/Less, __module.model/aten::masked_fill_/ConvertLike, __module.model/aten::masked_fill_/ConvertLike_compressed, __module.model/aten::masked_fill_/Select, __module.model/aten::sub/Subtract, __module.model/aten::view/Reshape_1, __module.model/aten::zeros/Broadcast, __module.model/aten::zeros/Convert, __module.model/aten::zeros/Convert_compressed, __module.model/prim::ListConstruct/Concat_2, __module.model/prim::ListConstruct/Concat_3" />
			</rt_info>
			<input>
				<port id="0" precision="FP16">
					<dim>-1</dim>
					<dim>-1</dim>
				</port>
				<port id="1" precision="FP16">
					<dim>-1</dim>
					<dim>-1</dim>
				</port>
			</input>
			<output>
				<port id="2" precision="FP16" names="394_1">
					<dim>-1</dim>
					<dim>-1</dim>
				</port>
			</output>
		</layer>
		<layer id="143" name="__module.model/aten::ones_like/ShapeOf" type="ShapeOf" version="opset3">
			<data output_type="i32" />
			<rt_info>
				<attribute name="fused_names" version="0" value="__module.model/aten::ones_like/ShapeOf" />
			</rt_info>
			<input>
				<port id="0" precision="FP16">
					<dim>-1</dim>
					<dim>-1</dim>
				</port>
			</input>
			<output>
				<port id="1" precision="I32">
					<dim>2</dim>
				</port>
			</output>
		</layer>
		<layer id="144" name="__module.model/aten::ones_like/Broadcast" type="Broadcast" version="opset3">
			<data mode="numpy" />
			<rt_info>
				<attribute name="fused_names" version="0" value="__module.model/aten::ones_like/Broadcast, __module.model/aten::ones_like/Convert, __module.model/aten::ones_like/ShapeOf" />
			</rt_info>
			<input>
				<port id="0" precision="I32" />
				<port id="1" precision="I32">
					<dim>2</dim>
				</port>
			</input>
			<output>
				<port id="2" precision="I32" names="398">
					<dim>-1</dim>
					<dim>-1</dim>
				</port>
			</output>
		</layer>
		<layer id="145" name="__module.model/aten::triu/ConvertLike" type="Const" version="opset1">
			<data element_type="i32" shape="" offset="778567680" size="4" />
			<rt_info>
				<attribute name="fused_names" version="0" value="__module.model/aten::triu/ConvertLike" />
			</rt_info>
			<output>
				<port id="0" precision="I32" />
			</output>
		</layer>
		<layer id="146" name="__module.model/aten::triu/Select" type="Select" version="type_relaxed_opset">
			<data type_relax="true" input_data_types="boolean" output_data_types="" auto_broadcast="numpy" />
			<rt_info>
				<attribute name="fused_names" version="0" value="Add_240771, Constant_231051, Constant_240522, Constant_240523, Constant_240581, Constant_240582, Constant_240768, Constant_240769, Constant_285907, Constant_285909, Convert_240766, Convert_240972, Convert_241167, Gather_240524, Gather_240583, Gather_240770, Gather_285910, ShapeOf_240521, ShapeOf_240580, ShapeOf_240767, ShapeOf_241214, ShapeOf_241301, ShapeOf_241388, ShapeOf_241475, ShapeOf_241562, ShapeOf_241649, ShapeOf_241736, ShapeOf_241823, ShapeOf_241910, ShapeOf_241997, ShapeOf_242084, ShapeOf_242171, ShapeOf_242258, ShapeOf_242345, ShapeOf_242432, ShapeOf_242519, ShapeOf_242606, ShapeOf_242693, ShapeOf_242780, ShapeOf_242867, ShapeOf_242954, ShapeOf_243041, ShapeOf_243128, ShapeOf_243215, ShapeOf_243302, ShapeOf_243389, ShapeOf_243476, ShapeOf_243563, ShapeOf_243650, ShapeOf_243737, ShapeOf_243824, ShapeOf_243911, ShapeOf_243998, ShapeOf_244085, ShapeOf_244172, ShapeOf_244259, ShapeOf_244346, ShapeOf_244433, ShapeOf_244520, ShapeOf_285905, __module.model/aten::add/Add, __module.model/aten::add/Add_2, __module.model/aten::ones_like/Broadcast, __module.model/aten::ones_like/Convert, __module.model/aten::ones_like/ShapeOf, __module.model/aten::sub/Subtract, __module.model/aten::triu/Add, __module.model/aten::triu/Constant, __module.model/aten::triu/Constant_2, __module.model/aten::triu/ConvertLike, __module.model/aten::triu/GreaterEqual, __module.model/aten::triu/Range, __module.model/aten::triu/Range_1, __module.model/aten::triu/Select, __module.model/aten::triu/Unsqueeze, __module.model/aten::triu/Unsqueeze_1" />
			</rt_info>
			<input>
				<port id="0" precision="U8">
					<dim>-1</dim>
					<dim>-1</dim>
				</port>
				<port id="1" precision="I32">
					<dim>-1</dim>
					<dim>-1</dim>
				</port>
				<port id="2" precision="I32" />
			</input>
			<output>
				<port id="3" precision="I32" names="399">
					<dim>-1</dim>
					<dim>-1</dim>
				</port>
			</output>
		</layer>
		<layer id="147" name="Constant_175749" type="Const" version="opset1">
			<data element_type="i32" shape="" offset="836534348" size="4" />
			<rt_info>
				<attribute name="fused_names" version="0" value="Add_240771, Constant_231051, Constant_232219, Constant_240522, Constant_240523, Constant_240581, Constant_240582, Constant_240768, Constant_240769, Convert_240766, Convert_240972, Convert_241167, Gather_240524, Gather_240583, Gather_240770, ShapeOf_240521, ShapeOf_240580, ShapeOf_240767, ShapeOf_241214, ShapeOf_241301, ShapeOf_241388, ShapeOf_241475, ShapeOf_241562, ShapeOf_241649, ShapeOf_241736, ShapeOf_241823, ShapeOf_241910, ShapeOf_241997, ShapeOf_242084, ShapeOf_242171, ShapeOf_242258, ShapeOf_242345, ShapeOf_242432, ShapeOf_242519, ShapeOf_242606, ShapeOf_242693, ShapeOf_242780, ShapeOf_242867, ShapeOf_242954, ShapeOf_243041, ShapeOf_243128, ShapeOf_243215, ShapeOf_243302, ShapeOf_243389, ShapeOf_243476, ShapeOf_243563, ShapeOf_243650, ShapeOf_243737, ShapeOf_243824, ShapeOf_243911, ShapeOf_243998, ShapeOf_244085, ShapeOf_244172, ShapeOf_244259, ShapeOf_244346, ShapeOf_244433, ShapeOf_244520, __module.model/aten::add/Add, __module.model/aten::add/Add_2, __module.model/aten::ones_like/Broadcast, __module.model/aten::ones_like/Convert, __module.model/aten::ones_like/ShapeOf, __module.model/aten::rsub/Subtract_1, __module.model/aten::sub/Subtract, __module.model/aten::triu/Add, __module.model/aten::triu/Constant, __module.model/aten::triu/Constant_2, __module.model/aten::triu/ConvertLike, __module.model/aten::triu/GreaterEqual, __module.model/aten::triu/Range, __module.model/aten::triu/Range_1, __module.model/aten::triu/Select, __module.model/aten::triu/Unsqueeze, __module.model/aten::triu/Unsqueeze_1" />
			</rt_info>
			<output>
				<port id="0" precision="I32" />
			</output>
		</layer>
		<layer id="148" name="Multiply_175750" type="Multiply" version="opset1">
			<data auto_broadcast="numpy" />
			<rt_info>
				<attribute name="fused_names" version="0" value="Add_240771, Constant_231051, Constant_232219, Constant_240522, Constant_240523, Constant_240581, Constant_240582, Constant_240768, Constant_240769, Constant_285907, Constant_285909, Convert_240766, Convert_240972, Convert_241167, Gather_240524, Gather_240583, Gather_240770, Gather_285910, ShapeOf_240521, ShapeOf_240580, ShapeOf_240767, ShapeOf_241214, ShapeOf_241301, ShapeOf_241388, ShapeOf_241475, ShapeOf_241562, ShapeOf_241649, ShapeOf_241736, ShapeOf_241823, ShapeOf_241910, ShapeOf_241997, ShapeOf_242084, ShapeOf_242171, ShapeOf_242258, ShapeOf_242345, ShapeOf_242432, ShapeOf_242519, ShapeOf_242606, ShapeOf_242693, ShapeOf_242780, ShapeOf_242867, ShapeOf_242954, ShapeOf_243041, ShapeOf_243128, ShapeOf_243215, ShapeOf_243302, ShapeOf_243389, ShapeOf_243476, ShapeOf_243563, ShapeOf_243650, ShapeOf_243737, ShapeOf_243824, ShapeOf_243911, ShapeOf_243998, ShapeOf_244085, ShapeOf_244172, ShapeOf_244259, ShapeOf_244346, ShapeOf_244433, ShapeOf_244520, ShapeOf_285905, __module.model/aten::add/Add, __module.model/aten::add/Add_2, __module.model/aten::ones_like/Broadcast, __module.model/aten::ones_like/Convert, __module.model/aten::ones_like/ShapeOf, __module.model/aten::rsub/Subtract_1, __module.model/aten::sub/Subtract, __module.model/aten::triu/Add, __module.model/aten::triu/Constant, __module.model/aten::triu/Constant_2, __module.model/aten::triu/ConvertLike, __module.model/aten::triu/GreaterEqual, __module.model/aten::triu/Range, __module.model/aten::triu/Range_1, __module.model/aten::triu/Select, __module.model/aten::triu/Unsqueeze, __module.model/aten::triu/Unsqueeze_1" />
			</rt_info>
			<input>
				<port id="0" precision="I32">
					<dim>-1</dim>
					<dim>-1</dim>
				</port>
				<port id="1" precision="I32" />
			</input>
			<output>
				<port id="2" precision="I32">
					<dim>-1</dim>
					<dim>-1</dim>
				</port>
			</output>
		</layer>
		<layer id="149" name="__module.model/aten::rsub/Subtract_1" type="Add" version="opset1">
			<data auto_broadcast="numpy" />
			<rt_info>
				<attribute name="fused_names" version="0" value="Add_240771, Constant_231051, Constant_232219, Constant_240522, Constant_240523, Constant_240581, Constant_240582, Constant_240768, Constant_240769, Constant_285907, Constant_285909, Convert_240766, Convert_240972, Convert_241167, Gather_240524, Gather_240583, Gather_240770, Gather_285910, ShapeOf_240521, ShapeOf_240580, ShapeOf_240767, ShapeOf_241214, ShapeOf_241301, ShapeOf_241388, ShapeOf_241475, ShapeOf_241562, ShapeOf_241649, ShapeOf_241736, ShapeOf_241823, ShapeOf_241910, ShapeOf_241997, ShapeOf_242084, ShapeOf_242171, ShapeOf_242258, ShapeOf_242345, ShapeOf_242432, ShapeOf_242519, ShapeOf_242606, ShapeOf_242693, ShapeOf_242780, ShapeOf_242867, ShapeOf_242954, ShapeOf_243041, ShapeOf_243128, ShapeOf_243215, ShapeOf_243302, ShapeOf_243389, ShapeOf_243476, ShapeOf_243563, ShapeOf_243650, ShapeOf_243737, ShapeOf_243824, ShapeOf_243911, ShapeOf_243998, ShapeOf_244085, ShapeOf_244172, ShapeOf_244259, ShapeOf_244346, ShapeOf_244433, ShapeOf_244520, ShapeOf_285905, __module.model/aten::add/Add, __module.model/aten::add/Add_2, __module.model/aten::ones_like/Broadcast, __module.model/aten::ones_like/Convert, __module.model/aten::ones_like/ShapeOf, __module.model/aten::rsub/Subtract_1, __module.model/aten::sub/Subtract, __module.model/aten::triu/Add, __module.model/aten::triu/Constant, __module.model/aten::triu/Constant_2, __module.model/aten::triu/ConvertLike, __module.model/aten::triu/GreaterEqual, __module.model/aten::triu/Range, __module.model/aten::triu/Range_1, __module.model/aten::triu/Select, __module.model/aten::triu/Unsqueeze, __module.model/aten::triu/Unsqueeze_1" />
			</rt_info>
			<input>
				<port id="0" precision="I32">
					<dim>1</dim>
					<dim>1</dim>
				</port>
				<port id="1" precision="I32">
					<dim>-1</dim>
					<dim>-1</dim>
				</port>
			</input>
			<output>
				<port id="2" precision="I32" names="400,context_mask">
					<dim>-1</dim>
					<dim>-1</dim>
				</port>
			</output>
		</layer>
		<layer id="150" name="__module.model/aten::to/Convert_6" type="Convert" version="opset1">
			<data destination_type="u8" />
			<rt_info>
				<attribute name="fused_names" version="0" value="Add_240771, Constant_231051, Constant_232219, Constant_240522, Constant_240523, Constant_240581, Constant_240582, Constant_240768, Constant_240769, Constant_285907, Constant_285909, Convert_240766, Convert_240972, Convert_241167, Gather_240524, Gather_240583, Gather_240770, Gather_285910, ShapeOf_240521, ShapeOf_240580, ShapeOf_240767, ShapeOf_241214, ShapeOf_241301, ShapeOf_241388, ShapeOf_241475, ShapeOf_241562, ShapeOf_241649, ShapeOf_241736, ShapeOf_241823, ShapeOf_241910, ShapeOf_241997, ShapeOf_242084, ShapeOf_242171, ShapeOf_242258, ShapeOf_242345, ShapeOf_242432, ShapeOf_242519, ShapeOf_242606, ShapeOf_242693, ShapeOf_242780, ShapeOf_242867, ShapeOf_242954, ShapeOf_243041, ShapeOf_243128, ShapeOf_243215, ShapeOf_243302, ShapeOf_243389, ShapeOf_243476, ShapeOf_243563, ShapeOf_243650, ShapeOf_243737, ShapeOf_243824, ShapeOf_243911, ShapeOf_243998, ShapeOf_244085, ShapeOf_244172, ShapeOf_244259, ShapeOf_244346, ShapeOf_244433, ShapeOf_244520, ShapeOf_285905, __module.model/aten::add/Add, __module.model/aten::add/Add_2, __module.model/aten::ones_like/Broadcast, __module.model/aten::ones_like/Convert, __module.model/aten::ones_like/ShapeOf, __module.model/aten::rsub/Subtract_1, __module.model/aten::sub/Subtract, __module.model/aten::to/Convert_6, __module.model/aten::triu/Add, __module.model/aten::triu/Constant, __module.model/aten::triu/Constant_2, __module.model/aten::triu/ConvertLike, __module.model/aten::triu/GreaterEqual, __module.model/aten::triu/Range, __module.model/aten::triu/Range_1, __module.model/aten::triu/Select, __module.model/aten::triu/Unsqueeze, __module.model/aten::triu/Unsqueeze_1" />
			</rt_info>
			<input>
				<port id="0" precision="I32">
					<dim>-1</dim>
					<dim>-1</dim>
				</port>
			</input>
			<output>
				<port id="1" precision="U8" names="401">
					<dim>-1</dim>
					<dim>-1</dim>
				</port>
			</output>
		</layer>
		<layer id="151" name="__module.model/aten::masked_fill_/ConvertLike_1" type="Const" version="opset1">
			<data element_type="f16" shape="" offset="836554874" size="2" />
			<rt_info>
				<attribute name="fused_names" version="0" value="__module.model/aten::masked_fill_/ConvertLike_1" />
			</rt_info>
			<output>
				<port id="0" precision="FP16" />
			</output>
		</layer>
		<layer id="152" name="__module.model/aten::masked_fill_/Select_1" type="Select" version="type_relaxed_opset">
			<data type_relax="true" input_data_types="boolean, undefined, undefined" output_data_types="" auto_broadcast="numpy" />
			<rt_info>
				<attribute name="fused_names" version="0" value="273, Add_240771, Constant_228036, Constant_231051, Constant_232218, Constant_232219, Constant_240522, Constant_240523, Constant_240526, Constant_240581, Constant_240582, Constant_240626, Constant_240759, Constant_240760, Constant_240768, Constant_240769, Constant_244569, Constant_285907, Constant_285909, Convert_240766, Convert_240972, Convert_241167, Gather_240524, Gather_240583, Gather_240761, Gather_240770, Gather_285910, Reshape_240527, Reshape_240627, ShapeOf_240521, ShapeOf_240580, ShapeOf_240758, ShapeOf_240767, ShapeOf_241214, ShapeOf_241301, ShapeOf_241388, ShapeOf_241475, ShapeOf_241562, ShapeOf_241649, ShapeOf_241736, ShapeOf_241823, ShapeOf_241910, ShapeOf_241997, ShapeOf_242084, ShapeOf_242171, ShapeOf_242258, ShapeOf_242345, ShapeOf_242432, ShapeOf_242519, ShapeOf_242606, ShapeOf_242693, ShapeOf_242780, ShapeOf_242867, ShapeOf_242954, ShapeOf_243041, ShapeOf_243128, ShapeOf_243215, ShapeOf_243302, ShapeOf_243389, ShapeOf_243476, ShapeOf_243563, ShapeOf_243650, ShapeOf_243737, ShapeOf_243824, ShapeOf_243911, ShapeOf_243998, ShapeOf_244085, ShapeOf_244172, ShapeOf_244259, ShapeOf_244346, ShapeOf_244433, ShapeOf_244520, ShapeOf_285905, Unsqueeze_240439, __module.model.layers.0.self_attn.rotary_emb/aten::slice/Constant, __module.model/aten::add/Add, __module.model/aten::add/Add_1, __module.model/aten::add/Add_2, __module.model/aten::arange/Constant, __module.model/aten::arange/Constant_1, __module.model/aten::arange/ConvertLike, __module.model/aten::arange/Range, __module.model/aten::cat/Concat, __module.model/aten::full/Broadcast, __module.model/aten::lt/Less, __module.model/aten::masked_fill_/ConvertLike, __module.model/aten::masked_fill_/ConvertLike_1, __module.model/aten::masked_fill_/ConvertLike_compressed, __module.model/aten::masked_fill_/Select, __module.model/aten::masked_fill_/Select_1, __module.model/aten::ones_like/Broadcast, __module.model/aten::ones_like/Convert, __module.model/aten::ones_like/ShapeOf, __module.model/aten::rsub/Subtract_1, __module.model/aten::sub/Subtract, __module.model/aten::to/Convert_6, __module.model/aten::triu/Add, __module.model/aten::triu/Constant, __module.model/aten::triu/Constant_2, __module.model/aten::triu/ConvertLike, __module.model/aten::triu/GreaterEqual, __module.model/aten::triu/Range, __module.model/aten::triu/Range_1, __module.model/aten::triu/Select, __module.model/aten::triu/Unsqueeze, __module.model/aten::triu/Unsqueeze_1, __module.model/aten::view/Reshape_1, __module.model/aten::zeros/Broadcast, __module.model/aten::zeros/Convert, __module.model/aten::zeros/Convert_compressed, __module.model/prim::ListConstruct/Concat_2, __module.model/prim::ListConstruct/Concat_3" />
			</rt_info>
			<input>
				<port id="0" precision="U8">
					<dim>-1</dim>
					<dim>-1</dim>
				</port>
				<port id="1" precision="FP16" />
				<port id="2" precision="FP16">
					<dim>-1</dim>
					<dim>-1</dim>
				</port>
			</input>
			<output>
				<port id="3" precision="FP16" names="394,mask.5">
					<dim>-1</dim>
					<dim>-1</dim>
				</port>
			</output>
		</layer>
		<layer id="153" name="Constant_120023" type="Const" version="opset1">
			<data element_type="i32" shape="2" offset="836554900" size="8" />
			<rt_info>
				<attribute name="fused_names" version="0" value="273, 274, 281, Add_240771, Constant_228036, Constant_231051, Constant_232218, Constant_232219, Constant_240522, Constant_240523, Constant_240526, Constant_240581, Constant_240582, Constant_240626, Constant_240759, Constant_240760, Constant_240768, Constant_240769, Constant_244569, Convert_240766, Convert_240972, Convert_241167, Gather_240524, Gather_240583, Gather_240761, Gather_240770, Reshape_240527, Reshape_240627, ShapeOf_240521, ShapeOf_240580, ShapeOf_240758, ShapeOf_240767, __module.model/aten::add/Add, __module.model/aten::add/Add_1, __module.model/aten::add/Add_2, __module.model/aten::arange/Constant, __module.model/aten::arange/Constant_1, __module.model/aten::arange/ConvertLike, __module.model/aten::arange/Range, __module.model/aten::cat/Concat, __module.model/aten::full/Broadcast, __module.model/aten::lt/Less, __module.model/aten::masked_fill_/ConvertLike, __module.model/aten::masked_fill_/ConvertLike_1, __module.model/aten::masked_fill_/ConvertLike_compressed, __module.model/aten::masked_fill_/Select, __module.model/aten::masked_fill_/Select_1, __module.model/aten::ones_like/Broadcast, __module.model/aten::ones_like/Convert, __module.model/aten::ones_like/ShapeOf, __module.model/aten::rsub/Subtract_1, __module.model/aten::sub/Subtract, __module.model/aten::to/Convert_6, __module.model/aten::triu/Add, __module.model/aten::triu/Constant, __module.model/aten::triu/Constant_2, __module.model/aten::triu/ConvertLike, __module.model/aten::triu/GreaterEqual, __module.model/aten::triu/Range, __module.model/aten::triu/Range_1, __module.model/aten::triu/Select, __module.model/aten::triu/Unsqueeze, __module.model/aten::triu/Unsqueeze_1, __module.model/aten::unsqueeze/Unsqueeze_2, __module.model/aten::unsqueeze/Unsqueeze_3, __module.model/aten::view/Reshape_1, __module.model/aten::zeros/Broadcast, __module.model/aten::zeros/Convert, __module.model/aten::zeros/Convert_compressed, __module.model/prim::ListConstruct/Concat_2, __module.model/prim::ListConstruct/Concat_3" />
			</rt_info>
			<output>
				<port id="0" precision="I32">
					<dim>2</dim>
				</port>
			</output>
		</layer>
		<layer id="154" name="__module.model/aten::unsqueeze/Unsqueeze_3" type="Unsqueeze" version="opset1">
			<rt_info>
				<attribute name="fused_names" version="0" value="273, 274, 281, Add_240771, Constant_228036, Constant_231051, Constant_232218, Constant_232219, Constant_240522, Constant_240523, Constant_240526, Constant_240581, Constant_240582, Constant_240626, Constant_240759, Constant_240760, Constant_240768, Constant_240769, Constant_244569, Constant_285907, Constant_285909, Convert_240766, Convert_240972, Convert_241167, Gather_240524, Gather_240583, Gather_240761, Gather_240770, Gather_285910, Reshape_240527, Reshape_240627, ShapeOf_240521, ShapeOf_240580, ShapeOf_240758, ShapeOf_240767, ShapeOf_241214, ShapeOf_241301, ShapeOf_241388, ShapeOf_241475, ShapeOf_241562, ShapeOf_241649, ShapeOf_241736, ShapeOf_241823, ShapeOf_241910, ShapeOf_241997, ShapeOf_242084, ShapeOf_242171, ShapeOf_242258, ShapeOf_242345, ShapeOf_242432, ShapeOf_242519, ShapeOf_242606, ShapeOf_242693, ShapeOf_242780, ShapeOf_242867, ShapeOf_242954, ShapeOf_243041, ShapeOf_243128, ShapeOf_243215, ShapeOf_243302, ShapeOf_243389, ShapeOf_243476, ShapeOf_243563, ShapeOf_243650, ShapeOf_243737, ShapeOf_243824, ShapeOf_243911, ShapeOf_243998, ShapeOf_244085, ShapeOf_244172, ShapeOf_244259, ShapeOf_244346, ShapeOf_244433, ShapeOf_244520, ShapeOf_285905, Unsqueeze_240439, __module.model.layers.0.self_attn.rotary_emb/aten::slice/Constant, __module.model/aten::add/Add, __module.model/aten::add/Add_1, __module.model/aten::add/Add_2, __module.model/aten::arange/Constant, __module.model/aten::arange/Constant_1, __module.model/aten::arange/ConvertLike, __module.model/aten::arange/Range, __module.model/aten::cat/Concat, __module.model/aten::full/Broadcast, __module.model/aten::lt/Less, __module.model/aten::masked_fill_/ConvertLike, __module.model/aten::masked_fill_/ConvertLike_1, __module.model/aten::masked_fill_/ConvertLike_compressed, __module.model/aten::masked_fill_/Select, __module.model/aten::masked_fill_/Select_1, __module.model/aten::ones_like/Broadcast, __module.model/aten::ones_like/Convert, __module.model/aten::ones_like/ShapeOf, __module.model/aten::rsub/Subtract_1, __module.model/aten::sub/Subtract, __module.model/aten::to/Convert_6, __module.model/aten::triu/Add, __module.model/aten::triu/Constant, __module.model/aten::triu/Constant_2, __module.model/aten::triu/ConvertLike, __module.model/aten::triu/GreaterEqual, __module.model/aten::triu/Range, __module.model/aten::triu/Range_1, __module.model/aten::triu/Select, __module.model/aten::triu/Unsqueeze, __module.model/aten::triu/Unsqueeze_1, __module.model/aten::unsqueeze/Unsqueeze_2, __module.model/aten::unsqueeze/Unsqueeze_3, __module.model/aten::view/Reshape_1, __module.model/aten::zeros/Broadcast, __module.model/aten::zeros/Convert, __module.model/aten::zeros/Convert_compressed, __module.model/prim::ListConstruct/Concat_2, __module.model/prim::ListConstruct/Concat_3" />
			</rt_info>
			<input>
				<port id="0" precision="FP16">
					<dim>-1</dim>
					<dim>-1</dim>
				</port>
				<port id="1" precision="I32">
					<dim>2</dim>
				</port>
			</input>
			<output>
				<port id="2" precision="FP16" names="404,405,406">
					<dim>1</dim>
					<dim>1</dim>
					<dim>-1</dim>
					<dim>-1</dim>
				</port>
			</output>
		</layer>
		<layer id="155" name="Constant_210406" type="Const" version="opset1">
			<data element_type="i32" shape="1" offset="836534352" size="4" />
			<rt_info>
				<attribute name="fused_names" version="0" value="Constant_210406" />
			</rt_info>
			<output>
				<port id="0" precision="I32">
					<dim>1</dim>
				</port>
			</output>
		</layer>
		<layer id="156" name="__module.model/aten::add/Add_3" type="Add" version="opset1">
			<data auto_broadcast="numpy" />
			<rt_info>
				<attribute name="fused_names" version="0" value="Constant_240522, Constant_240523, Constant_240526, Constant_240581, Constant_240582, Constant_240626, Constant_285907, Constant_285909, Convert_240766, Convert_241167, Gather_240524, Gather_240583, Gather_285910, Reshape_240527, Reshape_240627, ShapeOf_240521, ShapeOf_240580, ShapeOf_241214, ShapeOf_241301, ShapeOf_241388, ShapeOf_241475, ShapeOf_241562, ShapeOf_241649, ShapeOf_241736, ShapeOf_241823, ShapeOf_241910, ShapeOf_241997, ShapeOf_242084, ShapeOf_242171, ShapeOf_242258, ShapeOf_242345, ShapeOf_242432, ShapeOf_242519, ShapeOf_242606, ShapeOf_242693, ShapeOf_242780, ShapeOf_242867, ShapeOf_242954, ShapeOf_243041, ShapeOf_243128, ShapeOf_243215, ShapeOf_243302, ShapeOf_243389, ShapeOf_243476, ShapeOf_243563, ShapeOf_243650, ShapeOf_243737, ShapeOf_243824, ShapeOf_243911, ShapeOf_243998, ShapeOf_244085, ShapeOf_244172, ShapeOf_244259, ShapeOf_244346, ShapeOf_244433, ShapeOf_244520, ShapeOf_285905, Unsqueeze_240439, __module.model.layers.0.self_attn.rotary_emb/aten::slice/Constant, __module.model/aten::add/Add, __module.model/aten::add/Add_3, __module.model/aten::sub/Subtract" />
				<attribute name="precise" version="0" />
			</rt_info>
			<input>
				<port id="0" precision="I32">
					<dim>1</dim>
				</port>
				<port id="1" precision="I32">
					<dim>1</dim>
				</port>
			</input>
			<output>
				<port id="2" precision="I32" names="407,408">
					<dim>1</dim>
				</port>
			</output>
		</layer>
		<layer id="157" name="__module.model/prim::ListConstruct/Concat_5" type="Concat" version="opset1">
			<data axis="0" />
			<rt_info>
				<attribute name="fused_names" version="0" value="Constant_210406, Constant_240522, Constant_240523, Constant_240526, Constant_240530, Constant_240531, Constant_240535, Constant_240536, Constant_240581, Constant_240582, Constant_240626, Constant_285907, Constant_285909, Convert_240766, Convert_241167, Gather_240524, Gather_240532, Gather_240537, Gather_240583, Gather_285910, Reshape_240527, Reshape_240627, ShapeOf_240521, ShapeOf_240529, ShapeOf_240580, ShapeOf_241214, ShapeOf_241301, ShapeOf_241388, ShapeOf_241475, ShapeOf_241562, ShapeOf_241649, ShapeOf_241736, ShapeOf_241823, ShapeOf_241910, ShapeOf_241997, ShapeOf_242084, ShapeOf_242171, ShapeOf_242258, ShapeOf_242345, ShapeOf_242432, ShapeOf_242519, ShapeOf_242606, ShapeOf_242693, ShapeOf_242780, ShapeOf_242867, ShapeOf_242954, ShapeOf_243041, ShapeOf_243128, ShapeOf_243215, ShapeOf_243302, ShapeOf_243389, ShapeOf_243476, ShapeOf_243563, ShapeOf_243650, ShapeOf_243737, ShapeOf_243824, ShapeOf_243911, ShapeOf_243998, ShapeOf_244085, ShapeOf_244172, ShapeOf_244259, ShapeOf_244346, ShapeOf_244433, ShapeOf_244520, ShapeOf_285905, Unsqueeze_240439, __module.model.layers.0.self_attn.rotary_emb/aten::slice/Constant, __module.model/aten::add/Add, __module.model/aten::add/Add_3, __module.model/aten::sub/Subtract, __module.model/prim::ListConstruct/Concat_5" />
				<attribute name="precise" version="0" />
			</rt_info>
			<input>
				<port id="0" precision="I32">
					<dim>1</dim>
				</port>
				<port id="1" precision="I32">
					<dim>1</dim>
				</port>
				<port id="2" precision="I32">
					<dim>1</dim>
				</port>
				<port id="3" precision="I32">
					<dim>1</dim>
				</port>
			</input>
			<output>
				<port id="4" precision="I32" names="409">
					<dim>4</dim>
				</port>
			</output>
		</layer>
		<layer id="158" name="__module.model/aten::expand/Broadcast_1" type="Broadcast" version="opset3">
			<data mode="bidirectional" />
			<rt_info>
				<attribute name="fused_names" version="0" value="273, 274, 281, Add_240771, Constant_210406, Constant_228036, Constant_231051, Constant_232218, Constant_232219, Constant_240522, Constant_240523, Constant_240526, Constant_240530, Constant_240531, Constant_240535, Constant_240536, Constant_240581, Constant_240582, Constant_240626, Constant_240759, Constant_240760, Constant_240768, Constant_240769, Constant_244569, Constant_285907, Constant_285909, Convert_240766, Convert_240972, Convert_241167, Gather_240524, Gather_240532, Gather_240537, Gather_240583, Gather_240761, Gather_240770, Gather_285910, Reshape_240527, Reshape_240627, ShapeOf_240521, ShapeOf_240529, ShapeOf_240580, ShapeOf_240758, ShapeOf_240767, ShapeOf_241214, ShapeOf_241301, ShapeOf_241388, ShapeOf_241475, ShapeOf_241562, ShapeOf_241649, ShapeOf_241736, ShapeOf_241823, ShapeOf_241910, ShapeOf_241997, ShapeOf_242084, ShapeOf_242171, ShapeOf_242258, ShapeOf_242345, ShapeOf_242432, ShapeOf_242519, ShapeOf_242606, ShapeOf_242693, ShapeOf_242780, ShapeOf_242867, ShapeOf_242954, ShapeOf_243041, ShapeOf_243128, ShapeOf_243215, ShapeOf_243302, ShapeOf_243389, ShapeOf_243476, ShapeOf_243563, ShapeOf_243650, ShapeOf_243737, ShapeOf_243824, ShapeOf_243911, ShapeOf_243998, ShapeOf_244085, ShapeOf_244172, ShapeOf_244259, ShapeOf_244346, ShapeOf_244433, ShapeOf_244520, ShapeOf_285905, Unsqueeze_240439, __module.model.layers.0.self_attn.rotary_emb/aten::slice/Constant, __module.model/aten::add/Add, __module.model/aten::add/Add_1, __module.model/aten::add/Add_2, __module.model/aten::add/Add_3, __module.model/aten::arange/Constant, __module.model/aten::arange/Constant_1, __module.model/aten::arange/ConvertLike, __module.model/aten::arange/Range, __module.model/aten::cat/Concat, __module.model/aten::expand/Broadcast_1, __module.model/aten::full/Broadcast, __module.model/aten::lt/Less, __module.model/aten::masked_fill_/ConvertLike, __module.model/aten::masked_fill_/ConvertLike_1, __module.model/aten::masked_fill_/ConvertLike_compressed, __module.model/aten::masked_fill_/Select, __module.model/aten::masked_fill_/Select_1, __module.model/aten::ones_like/Broadcast, __module.model/aten::ones_like/Convert, __module.model/aten::ones_like/ShapeOf, __module.model/aten::rsub/Subtract_1, __module.model/aten::sub/Subtract, __module.model/aten::to/Convert_6, __module.model/aten::triu/Add, __module.model/aten::triu/Constant, __module.model/aten::triu/Constant_2, __module.model/aten::triu/ConvertLike, __module.model/aten::triu/GreaterEqual, __module.model/aten::triu/Range, __module.model/aten::triu/Range_1, __module.model/aten::triu/Select, __module.model/aten::triu/Unsqueeze, __module.model/aten::triu/Unsqueeze_1, __module.model/aten::unsqueeze/Unsqueeze_2, __module.model/aten::unsqueeze/Unsqueeze_3, __module.model/aten::view/Reshape_1, __module.model/aten::zeros/Broadcast, __module.model/aten::zeros/Convert, __module.model/aten::zeros/Convert_compressed, __module.model/prim::ListConstruct/Concat_2, __module.model/prim::ListConstruct/Concat_3, __module.model/prim::ListConstruct/Concat_5" />
			</rt_info>
			<input>
				<port id="0" precision="FP16">
					<dim>1</dim>
					<dim>1</dim>
					<dim>-1</dim>
					<dim>-1</dim>
				</port>
				<port id="1" precision="I32">
					<dim>4</dim>
				</port>
			</input>
			<output>
				<port id="2" precision="FP16" names="410,causal_4d_mask">
					<dim>-1</dim>
					<dim>1</dim>
					<dim>-1</dim>
					<dim>-1</dim>
				</port>
			</output>
		</layer>
		<layer id="159" name="__module.model/aten::masked_fill/Select_1" type="Select" version="type_relaxed_opset">
			<data type_relax="true" input_data_types="boolean, undefined, undefined" output_data_types="" auto_broadcast="numpy" />
			<rt_info>
				<attribute name="fused_names" version="0" value="__module.model/aten::masked_fill/Select_1" />
			</rt_info>
			<input>
				<port id="0" precision="U8">
					<dim>-1</dim>
					<dim>1</dim>
					<dim>-1</dim>
					<dim>-1</dim>
				</port>
				<port id="1" precision="FP16" />
				<port id="2" precision="FP16">
					<dim>-1</dim>
					<dim>1</dim>
					<dim>-1</dim>
					<dim>-1</dim>
				</port>
			</input>
			<output>
				<port id="3" precision="FP16" names="425,attention_mask">
					<dim>-1</dim>
					<dim>1</dim>
					<dim>-1</dim>
					<dim>-1</dim>
				</port>
			</output>
		</layer>
		<layer id="160" name="__module.model.layers.0.self_attn/aten::scaled_dot_product_attention/ScaledDotProductAttention" type="IndirectSDPA" version="gpu_opset">
			<data order_q="0, 1, 2, 3" order_k="0, 1, 2, 3" order_v="0, 1, 2, 3" order_out="0, 1, 2, 3" output_type="undefined" indirect_axis="0" />
			<rt_info>
				<attribute name="fused_names" version="0" value="Assign_278988, Assign_278990, Constant_271990, Constant_271993, Gather_271991, Gather_271994, ReadValue_278987, ReadValue_278989, __module.model.layers.0.self_attn/aten::add/Add, __module.model.layers.0.self_attn/aten::add/Add_1, __module.model.layers.0.self_attn/aten::cat/Concat_2, __module.model.layers.0.self_attn/aten::cat/Concat_3, __module.model.layers.0.self_attn/aten::scaled_dot_product_attention/ScaledDotProductAttention, __module.model.layers.0.self_attn/aten::transpose/Transpose_2, __module.model/aten::masked_fill/Select_1, beam_idx" />
			</rt_info>
			<input>
				<port id="0" precision="FP16">
					<dim>-1</dim>
					<dim>40</dim>
					<dim>-1</dim>
…
		<edge from-layer="3272" from-port="0" to-layer="3274" to-port="1" />
		<edge from-layer="3272" from-port="0" to-layer="3278" to-port="1" />
		<edge from-layer="3273" from-port="0" to-layer="3274" to-port="2" />
		<edge from-layer="3274" from-port="3" to-layer="3279" to-port="1" />
		<edge from-layer="3275" from-port="0" to-layer="3279" to-port="2" />
		<edge from-layer="3276" from-port="0" to-layer="3278" to-port="0" />
		<edge from-layer="3277" from-port="0" to-layer="3278" to-port="2" />
		<edge from-layer="3278" from-port="3" to-layer="3279" to-port="3" />
		<edge from-layer="3279" from-port="4" to-layer="3280" to-port="0" />
		<edge from-layer="3280" from-port="1" to-layer="3281" to-port="0" />
		<edge from-layer="3280" from-port="2" to-layer="3281" to-port="1" />
		<edge from-layer="3281" from-port="2" to-layer="3282" to-port="0" />
		<edge from-layer="3282" from-port="1" to-layer="3283" to-port="1" />
		<edge from-layer="3283" from-port="2" to-layer="3285" to-port="0" />
		<edge from-layer="3283" from-port="2" to-layer="3339" to-port="0" />
		<edge from-layer="3284" from-port="0" to-layer="3285" to-port="1" />
		<edge from-layer="3285" from-port="2" to-layer="3294" to-port="0" />
		<edge from-layer="3286" from-port="0" to-layer="3289" to-port="0" />
		<edge from-layer="3287" from-port="0" to-layer="3289" to-port="1" />
		<edge from-layer="3287" from-port="0" to-layer="3293" to-port="1" />
		<edge from-layer="3288" from-port="0" to-layer="3289" to-port="2" />
		<edge from-layer="3289" from-port="3" to-layer="3294" to-port="1" />
		<edge from-layer="3290" from-port="0" to-layer="3294" to-port="2" />
		<edge from-layer="3291" from-port="0" to-layer="3293" to-port="0" />
		<edge from-layer="3292" from-port="0" to-layer="3293" to-port="2" />
		<edge from-layer="3293" from-port="3" to-layer="3294" to-port="3" />
		<edge from-layer="3294" from-port="4" to-layer="3295" to-port="0" />
		<edge from-layer="3295" from-port="1" to-layer="3296" to-port="0" />
		<edge from-layer="3295" from-port="2" to-layer="3296" to-port="1" />
		<edge from-layer="3296" from-port="2" to-layer="3299" to-port="0" />
		<edge from-layer="3297" from-port="0" to-layer="3299" to-port="1" />
		<edge from-layer="3298" from-port="0" to-layer="3299" to-port="2" />
		<edge from-layer="3299" from-port="4" to-layer="3309" to-port="0" />
		<edge from-layer="3299" from-port="3" to-layer="3301" to-port="0" />
		<edge from-layer="3299" from-port="5" to-layer="3316" to-port="0" />
		<edge from-layer="3300" from-port="0" to-layer="3301" to-port="1" />
		<edge from-layer="3301" from-port="2" to-layer="3303" to-port="0" />
		<edge from-layer="3302" from-port="0" to-layer="3303" to-port="1" />
		<edge from-layer="3303" from-port="2" to-layer="3306" to-port="0" />
		<edge from-layer="3304" from-port="0" to-layer="3312" to-port="1" />
		<edge from-layer="3304" from-port="0" to-layer="3306" to-port="1" />
		<edge from-layer="3305" from-port="0" to-layer="3312" to-port="2" />
		<edge from-layer="3305" from-port="0" to-layer="3306" to-port="2" />
		<edge from-layer="3306" from-port="4" to-layer="3322" to-port="0" />
		<edge from-layer="3307" from-port="1" to-layer="3313" to-port="0" />
		<edge from-layer="3308" from-port="0" to-layer="3309" to-port="1" />
		<edge from-layer="3309" from-port="2" to-layer="3311" to-port="0" />
		<edge from-layer="3310" from-port="0" to-layer="3311" to-port="1" />
		<edge from-layer="3311" from-port="2" to-layer="3312" to-port="0" />
		<edge from-layer="3312" from-port="4" to-layer="3313" to-port="1" />
		<edge from-layer="3313" from-port="4" to-layer="3322" to-port="4" />
		<edge from-layer="3313" from-port="3" to-layer="3322" to-port="1" />
		<edge from-layer="3314" from-port="1" to-layer="3321" to-port="0" />
		<edge from-layer="3315" from-port="0" to-layer="3316" to-port="1" />
		<edge from-layer="3316" from-port="2" to-layer="3318" to-port="0" />
		<edge from-layer="3317" from-port="0" to-layer="3318" to-port="1" />
		<edge from-layer="3318" from-port="2" to-layer="3320" to-port="0" />
		<edge from-layer="3319" from-port="0" to-layer="3320" to-port="1" />
		<edge from-layer="3320" from-port="2" to-layer="3321" to-port="1" />
		<edge from-layer="3321" from-port="3" to-layer="3322" to-port="2" />
		<edge from-layer="3322" from-port="5" to-layer="3324" to-port="0" />
		<edge from-layer="3323" from-port="0" to-layer="3324" to-port="1" />
		<edge from-layer="3324" from-port="2" to-layer="3326" to-port="0" />
		<edge from-layer="3325" from-port="0" to-layer="3326" to-port="1" />
		<edge from-layer="3326" from-port="2" to-layer="3335" to-port="0" />
		<edge from-layer="3327" from-port="0" to-layer="3330" to-port="0" />
		<edge from-layer="3328" from-port="0" to-layer="3334" to-port="1" />
		<edge from-layer="3328" from-port="0" to-layer="3330" to-port="1" />
		<edge from-layer="3329" from-port="0" to-layer="3330" to-port="2" />
		<edge from-layer="3330" from-port="3" to-layer="3335" to-port="1" />
		<edge from-layer="3331" from-port="0" to-layer="3335" to-port="2" />
		<edge from-layer="3332" from-port="0" to-layer="3334" to-port="0" />
		<edge from-layer="3333" from-port="0" to-layer="3334" to-port="2" />
		<edge from-layer="3334" from-port="3" to-layer="3335" to-port="3" />
		<edge from-layer="3335" from-port="4" to-layer="3336" to-port="0" />
		<edge from-layer="3336" from-port="1" to-layer="3337" to-port="0" />
		<edge from-layer="3336" from-port="2" to-layer="3337" to-port="1" />
		<edge from-layer="3337" from-port="2" to-layer="3338" to-port="0" />
		<edge from-layer="3338" from-port="1" to-layer="3339" to-port="1" />
		<edge from-layer="3339" from-port="2" to-layer="3341" to-port="0" />
		<edge from-layer="3339" from-port="2" to-layer="3376" to-port="0" />
		<edge from-layer="3340" from-port="0" to-layer="3341" to-port="1" />
		<edge from-layer="3341" from-port="2" to-layer="3350" to-port="0" />
		<edge from-layer="3341" from-port="2" to-layer="3360" to-port="0" />
		<edge from-layer="3342" from-port="0" to-layer="3345" to-port="0" />
		<edge from-layer="3343" from-port="0" to-layer="3345" to-port="1" />
		<edge from-layer="3343" from-port="0" to-layer="3349" to-port="1" />
		<edge from-layer="3344" from-port="0" to-layer="3345" to-port="2" />
		<edge from-layer="3345" from-port="3" to-layer="3350" to-port="1" />
		<edge from-layer="3346" from-port="0" to-layer="3350" to-port="2" />
		<edge from-layer="3347" from-port="0" to-layer="3349" to-port="0" />
		<edge from-layer="3348" from-port="0" to-layer="3349" to-port="2" />
		<edge from-layer="3349" from-port="3" to-layer="3350" to-port="3" />
		<edge from-layer="3350" from-port="4" to-layer="3351" to-port="0" />
		<edge from-layer="3351" from-port="1" to-layer="3361" to-port="0" />
		<edge from-layer="3352" from-port="0" to-layer="3355" to-port="0" />
		<edge from-layer="3353" from-port="0" to-layer="3359" to-port="1" />
		<edge from-layer="3353" from-port="0" to-layer="3355" to-port="1" />
		<edge from-layer="3354" from-port="0" to-layer="3355" to-port="2" />
		<edge from-layer="3355" from-port="3" to-layer="3360" to-port="1" />
		<edge from-layer="3356" from-port="0" to-layer="3360" to-port="2" />
		<edge from-layer="3357" from-port="0" to-layer="3359" to-port="0" />
		<edge from-layer="3358" from-port="0" to-layer="3359" to-port="2" />
		<edge from-layer="3359" from-port="3" to-layer="3360" to-port="3" />
		<edge from-layer="3360" from-port="4" to-layer="3361" to-port="1" />
		<edge from-layer="3361" from-port="2" to-layer="3362" to-port="0" />
		<edge from-layer="3362" from-port="1" to-layer="3363" to-port="0" />
		<edge from-layer="3362" from-port="2" to-layer="3363" to-port="1" />
		<edge from-layer="3363" from-port="2" to-layer="3372" to-port="0" />
		<edge from-layer="3364" from-port="0" to-layer="3367" to-port="0" />
		<edge from-layer="3365" from-port="0" to-layer="3371" to-port="1" />
		<edge from-layer="3365" from-port="0" to-layer="3367" to-port="1" />
		<edge from-layer="3366" from-port="0" to-layer="3367" to-port="2" />
		<edge from-layer="3367" from-port="3" to-layer="3372" to-port="1" />
		<edge from-layer="3368" from-port="0" to-layer="3372" to-port="2" />
		<edge from-layer="3369" from-port="0" to-layer="3371" to-port="0" />
		<edge from-layer="3370" from-port="0" to-layer="3371" to-port="2" />
		<edge from-layer="3371" from-port="3" to-layer="3372" to-port="3" />
		<edge from-layer="3372" from-port="4" to-layer="3373" to-port="0" />
		<edge from-layer="3373" from-port="2" to-layer="3374" to-port="1" />
		<edge from-layer="3373" from-port="1" to-layer="3374" to-port="0" />
		<edge from-layer="3374" from-port="2" to-layer="3375" to-port="0" />
		<edge from-layer="3375" from-port="1" to-layer="3376" to-port="1" />
		<edge from-layer="3376" from-port="2" to-layer="3378" to-port="0" />
		<edge from-layer="3376" from-port="2" to-layer="3432" to-port="0" />
		<edge from-layer="3377" from-port="0" to-layer="3378" to-port="1" />
		<edge from-layer="3378" from-port="2" to-layer="3387" to-port="0" />
		<edge from-layer="3379" from-port="0" to-layer="3382" to-port="0" />
		<edge from-layer="3380" from-port="0" to-layer="3386" to-port="1" />
		<edge from-layer="3380" from-port="0" to-layer="3382" to-port="1" />
		<edge from-layer="3381" from-port="0" to-layer="3382" to-port="2" />
		<edge from-layer="3382" from-port="3" to-layer="3387" to-port="1" />
		<edge from-layer="3383" from-port="0" to-layer="3387" to-port="2" />
		<edge from-layer="3384" from-port="0" to-layer="3386" to-port="0" />
		<edge from-layer="3385" from-port="0" to-layer="3386" to-port="2" />
		<edge from-layer="3386" from-port="3" to-layer="3387" to-port="3" />
		<edge from-layer="3387" from-port="4" to-layer="3388" to-port="0" />
		<edge from-layer="3388" from-port="2" to-layer="3389" to-port="1" />
		<edge from-layer="3388" from-port="1" to-layer="3389" to-port="0" />
		<edge from-layer="3389" from-port="2" to-layer="3392" to-port="0" />
		<edge from-layer="3390" from-port="0" to-layer="3392" to-port="1" />
		<edge from-layer="3391" from-port="0" to-layer="3392" to-port="2" />
		<edge from-layer="3392" from-port="5" to-layer="3409" to-port="0" />
		<edge from-layer="3392" from-port="3" to-layer="3394" to-port="0" />
		<edge from-layer="3392" from-port="4" to-layer="3402" to-port="0" />
		<edge from-layer="3393" from-port="0" to-layer="3394" to-port="1" />
		<edge from-layer="3394" from-port="2" to-layer="3396" to-port="0" />
		<edge from-layer="3395" from-port="0" to-layer="3396" to-port="1" />
		<edge from-layer="3396" from-port="2" to-layer="3399" to-port="0" />
		<edge from-layer="3397" from-port="0" to-layer="3399" to-port="1" />
		<edge from-layer="3397" from-port="0" to-layer="3405" to-port="1" />
		<edge from-layer="3398" from-port="0" to-layer="3405" to-port="2" />
		<edge from-layer="3398" from-port="0" to-layer="3399" to-port="2" />
		<edge from-layer="3399" from-port="4" to-layer="3415" to-port="0" />
		<edge from-layer="3400" from-port="1" to-layer="3406" to-port="0" />
		<edge from-layer="3401" from-port="0" to-layer="3402" to-port="1" />
		<edge from-layer="3402" from-port="2" to-layer="3404" to-port="0" />
		<edge from-layer="3403" from-port="0" to-layer="3404" to-port="1" />
		<edge from-layer="3404" from-port="2" to-layer="3405" to-port="0" />
		<edge from-layer="3405" from-port="4" to-layer="3406" to-port="1" />
		<edge from-layer="3406" from-port="4" to-layer="3415" to-port="4" />
		<edge from-layer="3406" from-port="3" to-layer="3415" to-port="1" />
		<edge from-layer="3407" from-port="1" to-layer="3414" to-port="0" />
		<edge from-layer="3408" from-port="0" to-layer="3409" to-port="1" />
		<edge from-layer="3409" from-port="2" to-layer="3411" to-port="0" />
		<edge from-layer="3410" from-port="0" to-layer="3411" to-port="1" />
		<edge from-layer="3411" from-port="2" to-layer="3413" to-port="0" />
		<edge from-layer="3412" from-port="0" to-layer="3413" to-port="1" />
		<edge from-layer="3413" from-port="2" to-layer="3414" to-port="1" />
		<edge from-layer="3414" from-port="3" to-layer="3415" to-port="2" />
		<edge from-layer="3415" from-port="5" to-layer="3417" to-port="0" />
		<edge from-layer="3416" from-port="0" to-layer="3417" to-port="1" />
		<edge from-layer="3417" from-port="2" to-layer="3419" to-port="0" />
		<edge from-layer="3418" from-port="0" to-layer="3419" to-port="1" />
		<edge from-layer="3419" from-port="2" to-layer="3428" to-port="0" />
		<edge from-layer="3420" from-port="0" to-layer="3423" to-port="0" />
		<edge from-layer="3421" from-port="0" to-layer="3423" to-port="1" />
		<edge from-layer="3421" from-port="0" to-layer="3427" to-port="1" />
		<edge from-layer="3422" from-port="0" to-layer="3423" to-port="2" />
		<edge from-layer="3423" from-port="3" to-layer="3428" to-port="1" />
		<edge from-layer="3424" from-port="0" to-layer="3428" to-port="2" />
		<edge from-layer="3425" from-port="0" to-layer="3427" to-port="0" />
		<edge from-layer="3426" from-port="0" to-layer="3427" to-port="2" />
		<edge from-layer="3427" from-port="3" to-layer="3428" to-port="3" />
		<edge from-layer="3428" from-port="4" to-layer="3429" to-port="0" />
		<edge from-layer="3429" from-port="1" to-layer="3430" to-port="0" />
		<edge from-layer="3429" from-port="2" to-layer="3430" to-port="1" />
		<edge from-layer="3430" from-port="2" to-layer="3431" to-port="0" />
		<edge from-layer="3431" from-port="1" to-layer="3432" to-port="1" />
		<edge from-layer="3432" from-port="2" to-layer="3469" to-port="0" />
		<edge from-layer="3432" from-port="2" to-layer="3434" to-port="0" />
		<edge from-layer="3433" from-port="0" to-layer="3434" to-port="1" />
		<edge from-layer="3434" from-port="2" to-layer="3453" to-port="0" />
		<edge from-layer="3434" from-port="2" to-layer="3443" to-port="0" />
		<edge from-layer="3435" from-port="0" to-layer="3438" to-port="0" />
		<edge from-layer="3436" from-port="0" to-layer="3442" to-port="1" />
		<edge from-layer="3436" from-port="0" to-layer="3438" to-port="1" />
		<edge from-layer="3437" from-port="0" to-layer="3438" to-port="2" />
		<edge from-layer="3438" from-port="3" to-layer="3443" to-port="1" />
		<edge from-layer="3439" from-port="0" to-layer="3443" to-port="2" />
		<edge from-layer="3440" from-port="0" to-layer="3442" to-port="0" />
		<edge from-layer="3441" from-port="0" to-layer="3442" to-port="2" />
		<edge from-layer="3442" from-port="3" to-layer="3443" to-port="3" />
		<edge from-layer="3443" from-port="4" to-layer="3444" to-port="0" />
		<edge from-layer="3444" from-port="1" to-layer="3454" to-port="0" />
		<edge from-layer="3445" from-port="0" to-layer="3448" to-port="0" />
		<edge from-layer="3446" from-port="0" to-layer="3448" to-port="1" />
		<edge from-layer="3446" from-port="0" to-layer="3452" to-port="1" />
		<edge from-layer="3447" from-port="0" to-layer="3448" to-port="2" />
		<edge from-layer="3448" from-port="3" to-layer="3453" to-port="1" />
		<edge from-layer="3449" from-port="0" to-layer="3453" to-port="2" />
		<edge from-layer="3450" from-port="0" to-layer="3452" to-port="0" />
		<edge from-layer="3451" from-port="0" to-layer="3452" to-port="2" />
		<edge from-layer="3452" from-port="3" to-layer="3453" to-port="3" />
		<edge from-layer="3453" from-port="4" to-layer="3454" to-port="1" />
		<edge from-layer="3454" from-port="2" to-layer="3455" to-port="0" />
		<edge from-layer="3455" from-port="1" to-layer="3456" to-port="0" />
		<edge from-layer="3455" from-port="2" to-layer="3456" to-port="1" />
		<edge from-layer="3456" from-port="2" to-layer="3465" to-port="0" />
		<edge from-layer="3457" from-port="0" to-layer="3460" to-port="0" />
		<edge from-layer="3458" from-port="0" to-layer="3464" to-port="1" />
		<edge from-layer="3458" from-port="0" to-layer="3460" to-port="1" />
		<edge from-layer="3459" from-port="0" to-layer="3460" to-port="2" />
		<edge from-layer="3460" from-port="3" to-layer="3465" to-port="1" />
		<edge from-layer="3461" from-port="0" to-layer="3465" to-port="2" />
		<edge from-layer="3462" from-port="0" to-layer="3464" to-port="0" />
		<edge from-layer="3463" from-port="0" to-layer="3464" to-port="2" />
		<edge from-layer="3464" from-port="3" to-layer="3465" to-port="3" />
		<edge from-layer="3465" from-port="4" to-layer="3466" to-port="0" />
		<edge from-layer="3466" from-port="2" to-layer="3467" to-port="1" />
		<edge from-layer="3466" from-port="1" to-layer="3467" to-port="0" />
		<edge from-layer="3467" from-port="2" to-layer="3468" to-port="0" />
		<edge from-layer="3468" from-port="1" to-layer="3469" to-port="1" />
		<edge from-layer="3469" from-port="2" to-layer="3471" to-port="0" />
		<edge from-layer="3469" from-port="2" to-layer="3525" to-port="0" />
		<edge from-layer="3470" from-port="0" to-layer="3471" to-port="1" />
		<edge from-layer="3471" from-port="2" to-layer="3480" to-port="0" />
		<edge from-layer="3472" from-port="0" to-layer="3475" to-port="0" />
		<edge from-layer="3473" from-port="0" to-layer="3475" to-port="1" />
		<edge from-layer="3473" from-port="0" to-layer="3479" to-port="1" />
		<edge from-layer="3474" from-port="0" to-layer="3475" to-port="2" />
		<edge from-layer="3475" from-port="3" to-layer="3480" to-port="1" />
		<edge from-layer="3476" from-port="0" to-layer="3480" to-port="2" />
		<edge from-layer="3477" from-port="0" to-layer="3479" to-port="0" />
		<edge from-layer="3478" from-port="0" to-layer="3479" to-port="2" />
		<edge from-layer="3479" from-port="3" to-layer="3480" to-port="3" />
		<edge from-layer="3480" from-port="4" to-layer="3481" to-port="0" />
		<edge from-layer="3481" from-port="1" to-layer="3482" to-port="0" />
		<edge from-layer="3481" from-port="2" to-layer="3482" to-port="1" />
		<edge from-layer="3482" from-port="2" to-layer="3485" to-port="0" />
		<edge from-layer="3483" from-port="0" to-layer="3485" to-port="1" />
		<edge from-layer="3484" from-port="0" to-layer="3485" to-port="2" />
		<edge from-layer="3485" from-port="5" to-layer="3502" to-port="0" />
		<edge from-layer="3485" from-port="4" to-layer="3495" to-port="0" />
		<edge from-layer="3485" from-port="3" to-layer="3487" to-port="0" />
		<edge from-layer="3486" from-port="0" to-layer="3487" to-port="1" />
		<edge from-layer="3487" from-port="2" to-layer="3489" to-port="0" />
		<edge from-layer="3488" from-port="0" to-layer="3489" to-port="1" />
		<edge from-layer="3489" from-port="2" to-layer="3492" to-port="0" />
		<edge from-layer="3490" from-port="0" to-layer="3498" to-port="1" />
		<edge from-layer="3490" from-port="0" to-layer="3492" to-port="1" />
		<edge from-layer="3491" from-port="0" to-layer="3498" to-port="2" />
		<edge from-layer="3491" from-port="0" to-layer="3492" to-port="2" />
		<edge from-layer="3492" from-port="4" to-layer="3508" to-port="0" />
		<edge from-layer="3493" from-port="1" to-layer="3499" to-port="0" />
		<edge from-layer="3494" from-port="0" to-layer="3495" to-port="1" />
		<edge from-layer="3495" from-port="2" to-layer="3497" to-port="0" />
		<edge from-layer="3496" from-port="0" to-layer="3497" to-port="1" />
		<edge from-layer="3497" from-port="2" to-layer="3498" to-port="0" />
		<edge from-layer="3498" from-port="4" to-layer="3499" to-port="1" />
		<edge from-layer="3499" from-port="4" to-layer="3508" to-port="4" />
		<edge from-layer="3499" from-port="3" to-layer="3508" to-port="1" />
		<edge from-layer="3500" from-port="1" to-layer="3507" to-port="0" />
		<edge from-layer="3501" from-port="0" to-layer="3502" to-port="1" />
		<edge from-layer="3502" from-port="2" to-layer="3504" to-port="0" />
		<edge from-layer="3503" from-port="0" to-layer="3504" to-port="1" />
		<edge from-layer="3504" from-port="2" to-layer="3506" to-port="0" />
		<edge from-layer="3505" from-port="0" to-layer="3506" to-port="1" />
		<edge from-layer="3506" from-port="2" to-layer="3507" to-port="1" />
		<edge from-layer="3507" from-port="3" to-layer="3508" to-port="2" />
		<edge from-layer="3508" from-port="5" to-layer="3510" to-port="0" />
		<edge from-layer="3509" from-port="0" to-layer="3510" to-port="1" />
		<edge from-layer="3510" from-port="2" to-layer="3512" to-port="0" />
		<edge from-layer="3511" from-port="0" to-layer="3512" to-port="1" />
		<edge from-layer="3512" from-port="2" to-layer="3521" to-port="0" />
		<edge from-layer="3513" from-port="0" to-layer="3516" to-port="0" />
		<edge from-layer="3514" from-port="0" to-layer="3520" to-port="1" />
		<edge from-layer="3514" from-port="0" to-layer="3516" to-port="1" />
		<edge from-layer="3515" from-port="0" to-layer="3516" to-port="2" />
		<edge from-layer="3516" from-port="3" to-layer="3521" to-port="1" />
		<edge from-layer="3517" from-port="0" to-layer="3521" to-port="2" />
		<edge from-layer="3518" from-port="0" to-layer="3520" to-port="0" />
		<edge from-layer="3519" from-port="0" to-layer="3520" to-port="2" />
		<edge from-layer="3520" from-port="3" to-layer="3521" to-port="3" />
		<edge from-layer="3521" from-port="4" to-layer="3522" to-port="0" />
		<edge from-layer="3522" from-port="1" to-layer="3523" to-port="0" />
		<edge from-layer="3522" from-port="2" to-layer="3523" to-port="1" />
		<edge from-layer="3523" from-port="2" to-layer="3524" to-port="0" />
		<edge from-layer="3524" from-port="1" to-layer="3525" to-port="1" />
		<edge from-layer="3525" from-port="2" to-layer="3562" to-port="0" />
		<edge from-layer="3525" from-port="2" to-layer="3527" to-port="0" />
		<edge from-layer="3526" from-port="0" to-layer="3527" to-port="1" />
		<edge from-layer="3527" from-port="2" to-layer="3546" to-port="0" />
		<edge from-layer="3527" from-port="2" to-layer="3536" to-port="0" />
		<edge from-layer="3528" from-port="0" to-layer="3531" to-port="0" />
		<edge from-layer="3529" from-port="0" to-layer="3531" to-port="1" />
		<edge from-layer="3529" from-port="0" to-layer="3535" to-port="1" />
		<edge from-layer="3530" from-port="0" to-layer="3531" to-port="2" />
		<edge from-layer="3531" from-port="3" to-layer="3536" to-port="1" />
		<edge from-layer="3532" from-port="0" to-layer="3536" to-port="2" />
		<edge from-layer="3533" from-port="0" to-layer="3535" to-port="0" />
		<edge from-layer="3534" from-port="0" to-layer="3535" to-port="2" />
		<edge from-layer="3535" from-port="3" to-layer="3536" to-port="3" />
		<edge from-layer="3536" from-port="4" to-layer="3537" to-port="0" />
		<edge from-layer="3537" from-port="1" to-layer="3547" to-port="0" />
		<edge from-layer="3538" from-port="0" to-layer="3541" to-port="0" />
		<edge from-layer="3539" from-port="0" to-layer="3541" to-port="1" />
		<edge from-layer="3539" from-port="0" to-layer="3545" to-port="1" />
		<edge from-layer="3540" from-port="0" to-layer="3541" to-port="2" />
		<edge from-layer="3541" from-port="3" to-layer="3546" to-port="1" />
		<edge from-layer="3542" from-port="0" to-layer="3546" to-port="2" />
		<edge from-layer="3543" from-port="0" to-layer="3545" to-port="0" />
		<edge from-layer="3544" from-port="0" to-layer="3545" to-port="2" />
		<edge from-layer="3545" from-port="3" to-layer="3546" to-port="3" />
		<edge from-layer="3546" from-port="4" to-layer="3547" to-port="1" />
		<edge from-layer="3547" from-port="2" to-layer="3548" to-port="0" />
		<edge from-layer="3548" from-port="1" to-layer="3549" to-port="0" />
		<edge from-layer="3548" from-port="2" to-layer="3549" to-port="1" />
		<edge from-layer="3549" from-port="2" to-layer="3558" to-port="0" />
		<edge from-layer="3550" from-port="0" to-layer="3553" to-port="0" />
		<edge from-layer="3551" from-port="0" to-layer="3553" to-port="1" />
		<edge from-layer="3551" from-port="0" to-layer="3557" to-port="1" />
		<edge from-layer="3552" from-port="0" to-layer="3553" to-port="2" />
		<edge from-layer="3553" from-port="3" to-layer="3558" to-port="1" />
		<edge from-layer="3554" from-port="0" to-layer="3558" to-port="2" />
		<edge from-layer="3555" from-port="0" to-layer="3557" to-port="0" />
		<edge from-layer="3556" from-port="0" to-layer="3557" to-port="2" />
		<edge from-layer="3557" from-port="3" to-layer="3558" to-port="3" />
		<edge from-layer="3558" from-port="4" to-layer="3559" to-port="0" />
		<edge from-layer="3559" from-port="1" to-layer="3560" to-port="0" />
		<edge from-layer="3559" from-port="2" to-layer="3560" to-port="1" />
		<edge from-layer="3560" from-port="2" to-layer="3561" to-port="0" />
		<edge from-layer="3561" from-port="1" to-layer="3562" to-port="1" />
		<edge from-layer="3562" from-port="2" to-layer="3564" to-port="0" />
		<edge from-layer="3562" from-port="2" to-layer="3618" to-port="0" />
		<edge from-layer="3563" from-port="0" to-layer="3564" to-port="1" />
		<edge from-layer="3564" from-port="2" to-layer="3573" to-port="0" />
		<edge from-layer="3565" from-port="0" to-layer="3568" to-port="0" />
		<edge from-layer="3566" from-port="0" to-layer="3568" to-port="1" />
		<edge from-layer="3566" from-port="0" to-layer="3572" to-port="1" />
		<edge from-layer="3567" from-port="0" to-layer="3568" to-port="2" />
		<edge from-layer="3568" from-port="3" to-layer="3573" to-port="1" />
		<edge from-layer="3569" from-port="0" to-layer="3573" to-port="2" />
		<edge from-layer="3570" from-port="0" to-layer="3572" to-port="0" />
		<edge from-layer="3571" from-port="0" to-layer="3572" to-port="2" />
		<edge from-layer="3572" from-port="3" to-layer="3573" to-port="3" />
		<edge from-layer="3573" from-port="4" to-layer="3574" to-port="0" />
		<edge from-layer="3574" from-port="2" to-layer="3575" to-port="1" />
		<edge from-layer="3574" from-port="1" to-layer="3575" to-port="0" />
		<edge from-layer="3575" from-port="2" to-layer="3578" to-port="0" />
		<edge from-layer="3576" from-port="0" to-layer="3578" to-port="1" />
		<edge from-layer="3577" from-port="0" to-layer="3578" to-port="2" />
		<edge from-layer="3578" from-port="4" to-layer="3588" to-port="0" />
		<edge from-layer="3578" from-port="3" to-layer="3580" to-port="0" />
		<edge from-layer="3578" from-port="5" to-layer="3595" to-port="0" />
		<edge from-layer="3579" from-port="0" to-layer="3580" to-port="1" />
		<edge from-layer="3580" from-port="2" to-layer="3582" to-port="0" />
		<edge from-layer="3581" from-port="0" to-layer="3582" to-port="1" />
		<edge from-layer="3582" from-port="2" to-layer="3585" to-port="0" />
		<edge from-layer="3583" from-port="0" to-layer="3591" to-port="1" />
		<edge from-layer="3583" from-port="0" to-layer="3585" to-port="1" />
		<edge from-layer="3584" from-port="0" to-layer="3591" to-port="2" />
		<edge from-layer="3584" from-port="0" to-layer="3585" to-port="2" />
		<edge from-layer="3585" from-port="4" to-layer="3601" to-port="0" />
		<edge from-layer="3586" from-port="1" to-layer="3592" to-port="0" />
		<edge from-layer="3587" from-port="0" to-layer="3588" to-port="1" />
		<edge from-layer="3588" from-port="2" to-layer="3590" to-port="0" />
		<edge from-layer="3589" from-port="0" to-layer="3590" to-port="1" />
		<edge from-layer="3590" from-port="2" to-layer="3591" to-port="0" />
		<edge from-layer="3591" from-port="4" to-layer="3592" to-port="1" />
		<edge from-layer="3592" from-port="3" to-layer="3601" to-port="1" />
		<edge from-layer="3592" from-port="4" to-layer="3601" to-port="4" />
		<edge from-layer="3593" from-port="1" to-layer="3600" to-port="0" />
		<edge from-layer="3594" from-port="0" to-layer="3595" to-port="1" />
		<edge from-layer="3595" from-port="2" to-layer="3597" to-port="0" />
		<edge from-layer="3596" from-port="0" to-layer="3597" to-port="1" />
		<edge from-layer="3597" from-port="2" to-layer="3599" to-port="0" />
		<edge from-layer="3598" from-port="0" to-layer="3599" to-port="1" />
		<edge from-layer="3599" from-port="2" to-layer="3600" to-port="1" />
		<edge from-layer="3600" from-port="3" to-layer="3601" to-port="2" />
		<edge from-layer="3601" from-port="5" to-layer="3603" to-port="0" />
		<edge from-layer="3602" from-port="0" to-layer="3603" to-port="1" />
		<edge from-layer="3603" from-port="2" to-layer="3605" to-port="0" />
		<edge from-layer="3604" from-port="0" to-layer="3605" to-port="1" />
		<edge from-layer="3605" from-port="2" to-layer="3614" to-port="0" />
		<edge from-layer="3606" from-port="0" to-layer="3609" to-port="0" />
		<edge from-layer="3607" from-port="0" to-layer="3613" to-port="1" />
		<edge from-layer="3607" from-port="0" to-layer="3609" to-port="1" />
		<edge from-layer="3608" from-port="0" to-layer="3609" to-port="2" />
		<edge from-layer="3609" from-port="3" to-layer="3614" to-port="1" />
		<edge from-layer="3610" from-port="0" to-layer="3614" to-port="2" />
		<edge from-layer="3611" from-port="0" to-layer="3613" to-port="0" />
		<edge from-layer="3612" from-port="0" to-layer="3613" to-port="2" />
		<edge from-layer="3613" from-port="3" to-layer="3614" to-port="3" />
		<edge from-layer="3614" from-port="4" to-layer="3615" to-port="0" />
		<edge from-layer="3615" from-port="1" to-layer="3616" to-port="0" />
		<edge from-layer="3615" from-port="2" to-layer="3616" to-port="1" />
		<edge from-layer="3616" from-port="2" to-layer="3617" to-port="0" />
		<edge from-layer="3617" from-port="1" to-layer="3618" to-port="1" />
		<edge from-layer="3618" from-port="2" to-layer="3655" to-port="0" />
		<edge from-layer="3618" from-port="2" to-layer="3620" to-port="0" />
		<edge from-layer="3619" from-port="0" to-layer="3620" to-port="1" />
		<edge from-layer="3620" from-port="2" to-layer="3639" to-port="0" />
		<edge from-layer="3620" from-port="2" to-layer="3629" to-port="0" />
		<edge from-layer="3621" from-port="0" to-layer="3624" to-port="0" />
		<edge from-layer="3622" from-port="0" to-layer="3624" to-port="1" />
		<edge from-layer="3622" from-port="0" to-layer="3628" to-port="1" />
		<edge from-layer="3623" from-port="0" to-layer="3624" to-port="2" />
		<edge from-layer="3624" from-port="3" to-layer="3629" to-port="1" />
		<edge from-layer="3625" from-port="0" to-layer="3629" to-port="2" />
		<edge from-layer="3626" from-port="0" to-layer="3628" to-port="0" />
		<edge from-layer="3627" from-port="0" to-layer="3628" to-port="2" />
		<edge from-layer="3628" from-port="3" to-layer="3629" to-port="3" />
		<edge from-layer="3629" from-port="4" to-layer="3630" to-port="0" />
		<edge from-layer="3630" from-port="1" to-layer="3640" to-port="0" />
		<edge from-layer="3631" from-port="0" to-layer="3634" to-port="0" />
		<edge from-layer="3632" from-port="0" to-layer="3634" to-port="1" />
		<edge from-layer="3632" from-port="0" to-layer="3638" to-port="1" />
		<edge from-layer="3633" from-port="0" to-layer="3634" to-port="2" />
		<edge from-layer="3634" from-port="3" to-layer="3639" to-port="1" />
		<edge from-layer="3635" from-port="0" to-layer="3639" to-port="2" />
		<edge from-layer="3636" from-port="0" to-layer="3638" to-port="0" />
		<edge from-layer="3637" from-port="0" to-layer="3638" to-port="2" />
		<edge from-layer="3638" from-port="3" to-layer="3639" to-port="3" />
		<edge from-layer="3639" from-port="4" to-layer="3640" to-port="1" />
		<edge from-layer="3640" from-port="2" to-layer="3641" to-port="0" />
		<edge from-layer="3641" from-port="2" to-layer="3642" to-port="1" />
		<edge from-layer="3641" from-port="1" to-layer="3642" to-port="0" />
		<edge from-layer="3642" from-port="2" to-layer="3651" to-port="0" />
		<edge from-layer="3643" from-port="0" to-layer="3646" to-port="0" />
		<edge from-layer="3644" from-port="0" to-layer="3646" to-port="1" />
		<edge from-layer="3644" from-port="0" to-layer="3650" to-port="1" />
		<edge from-layer="3645" from-port="0" to-layer="3646" to-port="2" />
		<edge from-layer="3646" from-port="3" to-layer="3651" to-port="1" />
		<edge from-layer="3647" from-port="0" to-layer="3651" to-port="2" />
		<edge from-layer="3648" from-port="0" to-layer="3650" to-port="0" />
		<edge from-layer="3649" from-port="0" to-layer="3650" to-port="2" />
		<edge from-layer="3650" from-port="3" to-layer="3651" to-port="3" />
		<edge from-layer="3651" from-port="4" to-layer="3652" to-port="0" />
		<edge from-layer="3652" from-port="2" to-layer="3653" to-port="1" />
		<edge from-layer="3652" from-port="1" to-layer="3653" to-port="0" />
		<edge from-layer="3653" from-port="2" to-layer="3654" to-port="0" />
		<edge from-layer="3654" from-port="1" to-layer="3655" to-port="1" />
		<edge from-layer="3655" from-port="2" to-layer="3711" to-port="0" />
		<edge from-layer="3655" from-port="2" to-layer="3657" to-port="0" />
		<edge from-layer="3656" from-port="0" to-layer="3657" to-port="1" />
		<edge from-layer="3657" from-port="2" to-layer="3666" to-port="0" />
		<edge from-layer="3658" from-port="0" to-layer="3661" to-port="0" />
		<edge from-layer="3659" from-port="0" to-layer="3665" to-port="1" />
		<edge from-layer="3659" from-port="0" to-layer="3661" to-port="1" />
		<edge from-layer="3660" from-port="0" to-layer="3661" to-port="2" />
		<edge from-layer="3661" from-port="3" to-layer="3666" to-port="1" />
		<edge from-layer="3662" from-port="0" to-layer="3666" to-port="2" />
		<edge from-layer="3663" from-port="0" to-layer="3665" to-port="0" />
		<edge from-layer="3664" from-port="0" to-layer="3665" to-port="2" />
		<edge from-layer="3665" from-port="3" to-layer="3666" to-port="3" />
		<edge from-layer="3666" from-port="4" to-layer="3667" to-port="0" />
		<edge from-layer="3667" from-port="1" to-layer="3668" to-port="0" />
		<edge from-layer="3667" from-port="2" to-layer="3668" to-port="1" />
		<edge from-layer="3668" from-port="2" to-layer="3671" to-port="0" />
		<edge from-layer="3669" from-port="0" to-layer="3671" to-port="1" />
		<edge from-layer="3670" from-port="0" to-layer="3671" to-port="2" />
		<edge from-layer="3671" from-port="3" to-layer="3673" to-port="0" />
		<edge from-layer="3671" from-port="5" to-layer="3688" to-port="0" />
		<edge from-layer="3671" from-port="4" to-layer="3681" to-port="0" />
		<edge from-layer="3672" from-port="0" to-layer="3673" to-port="1" />
		<edge from-layer="3673" from-port="2" to-layer="3675" to-port="0" />
		<edge from-layer="3674" from-port="0" to-layer="3675" to-port="1" />
		<edge from-layer="3675" from-port="2" to-layer="3678" to-port="0" />
		<edge from-layer="3676" from-port="0" to-layer="3684" to-port="1" />
		<edge from-layer="3676" from-port="0" to-layer="3678" to-port="1" />
		<edge from-layer="3677" from-port="0" to-layer="3684" to-port="2" />
		<edge from-layer="3677" from-port="0" to-layer="3678" to-port="2" />
		<edge from-layer="3678" from-port="4" to-layer="3694" to-port="0" />
		<edge from-layer="3679" from-port="1" to-layer="3685" to-port="0" />
		<edge from-layer="3680" from-port="0" to-layer="3681" to-port="1" />
		<edge from-layer="3681" from-port="2" to-layer="3683" to-port="0" />
		<edge from-layer="3682" from-port="0" to-layer="3683" to-port="1" />
		<edge from-layer="3683" from-port="2" to-layer="3684" to-port="0" />
		<edge from-layer="3684" from-port="4" to-layer="3685" to-port="1" />
		<edge from-layer="3685" from-port="3" to-layer="3694" to-port="1" />
		<edge from-layer="3685" from-port="4" to-layer="3694" to-port="4" />
		<edge from-layer="3686" from-port="1" to-layer="3693" to-port="0" />
		<edge from-layer="3687" from-port="0" to-layer="3688" to-port="1" />
		<edge from-layer="3688" from-port="2" to-layer="3690" to-port="0" />
		<edge from-layer="3689" from-port="0" to-layer="3690" to-port="1" />
		<edge from-layer="3690" from-port="2" to-layer="3692" to-port="0" />
		<edge from-layer="3691" from-port="0" to-layer="3692" to-port="1" />
		<edge from-layer="3692" from-port="2" to-layer="3693" to-port="1" />
		<edge from-layer="3693" from-port="3" to-layer="3694" to-port="2" />
		<edge from-layer="3694" from-port="5" to-layer="3696" to-port="0" />
		<edge from-layer="3695" from-port="0" to-layer="3696" to-port="1" />
		<edge from-layer="3696" from-port="2" to-layer="3698" to-port="0" />
		<edge from-layer="3697" from-port="0" to-layer="3698" to-port="1" />
		<edge from-layer="3698" from-port="2" to-layer="3707" to-port="0" />
		<edge from-layer="3699" from-port="0" to-layer="3702" to-port="0" />
		<edge from-layer="3700" from-port="0" to-layer="3706" to-port="1" />
		<edge from-layer="3700" from-port="0" to-layer="3702" to-port="1" />
		<edge from-layer="3701" from-port="0" to-layer="3702" to-port="2" />
		<edge from-layer="3702" from-port="3" to-layer="3707" to-port="1" />
		<edge from-layer="3703" from-port="0" to-layer="3707" to-port="2" />
		<edge from-layer="3704" from-port="0" to-layer="3706" to-port="0" />
		<edge from-layer="3705" from-port="0" to-layer="3706" to-port="2" />
		<edge from-layer="3706" from-port="3" to-layer="3707" to-port="3" />
		<edge from-layer="3707" from-port="4" to-layer="3708" to-port="0" />
		<edge from-layer="3708" from-port="1" to-layer="3709" to-port="0" />
		<edge from-layer="3708" from-port="2" to-layer="3709" to-port="1" />
		<edge from-layer="3709" from-port="2" to-layer="3710" to-port="0" />
		<edge from-layer="3710" from-port="1" to-layer="3711" to-port="1" />
		<edge from-layer="3711" from-port="2" to-layer="3748" to-port="0" />
		<edge from-layer="3711" from-port="2" to-layer="3713" to-port="0" />
		<edge from-layer="3712" from-port="0" to-layer="3713" to-port="1" />
		<edge from-layer="3713" from-port="2" to-layer="3722" to-port="0" />
		<edge from-layer="3713" from-port="2" to-layer="3732" to-port="0" />
		<edge from-layer="3714" from-port="0" to-layer="3717" to-port="0" />
		<edge from-layer="3715" from-port="0" to-layer="3721" to-port="1" />
		<edge from-layer="3715" from-port="0" to-layer="3717" to-port="1" />
		<edge from-layer="3716" from-port="0" to-layer="3717" to-port="2" />
		<edge from-layer="3717" from-port="3" to-layer="3722" to-port="1" />
		<edge from-layer="3718" from-port="0" to-layer="3722" to-port="2" />
		<edge from-layer="3719" from-port="0" to-layer="3721" to-port="0" />
		<edge from-layer="3720" from-port="0" to-layer="3721" to-port="2" />
		<edge from-layer="3721" from-port="3" to-layer="3722" to-port="3" />
		<edge from-layer="3722" from-port="4" to-layer="3723" to-port="0" />
		<edge from-layer="3723" from-port="1" to-layer="3733" to-port="0" />
		<edge from-layer="3724" from-port="0" to-layer="3727" to-port="0" />
		<edge from-layer="3725" from-port="0" to-layer="3731" to-port="1" />
		<edge from-layer="3725" from-port="0" to-layer="3727" to-port="1" />
		<edge from-layer="3726" from-port="0" to-layer="3727" to-port="2" />
		<edge from-layer="3727" from-port="3" to-layer="3732" to-port="1" />
		<edge from-layer="3728" from-port="0" to-layer="3732" to-port="2" />
		<edge from-layer="3729" from-port="0" to-layer="3731" to-port="0" />
		<edge from-layer="3730" from-port="0" to-layer="3731" to-port="2" />
		<edge from-layer="3731" from-port="3" to-layer="3732" to-port="3" />
		<edge from-layer="3732" from-port="4" to-layer="3733" to-port="1" />
		<edge from-layer="3733" from-port="2" to-layer="3734" to-port="0" />
		<edge from-layer="3734" from-port="2" to-layer="3735" to-port="1" />
		<edge from-layer="3734" from-port="1" to-layer="3735" to-port="0" />
		<edge from-layer="3735" from-port="2" to-layer="3744" to-port="0" />
		<edge from-layer="3736" from-port="0" to-layer="3739" to-port="0" />
		<edge from-layer="3737" from-port="0" to-layer="3743" to-port="1" />
		<edge from-layer="3737" from-port="0" to-layer="3739" to-port="1" />
		<edge from-layer="3738" from-port="0" to-layer="3739" to-port="2" />
		<edge from-layer="3739" from-port="3" to-layer="3744" to-port="1" />
		<edge from-layer="3740" from-port="0" to-layer="3744" to-port="2" />
		<edge from-layer="3741" from-port="0" to-layer="3743" to-port="0" />
		<edge from-layer="3742" from-port="0" to-layer="3743" to-port="2" />
		<edge from-layer="3743" from-port="3" to-layer="3744" to-port="3" />
		<edge from-layer="3744" from-port="4" to-layer="3745" to-port="0" />
		<edge from-layer="3745" from-port="2" to-layer="3746" to-port="1" />
		<edge from-layer="3745" from-port="1" to-layer="3746" to-port="0" />
		<edge from-layer="3746" from-port="2" to-layer="3747" to-port="0" />
		<edge from-layer="3747" from-port="1" to-layer="3748" to-port="1" />
		<edge from-layer="3748" from-port="2" to-layer="3804" to-port="0" />
		<edge from-layer="3748" from-port="2" to-layer="3750" to-port="0" />
		<edge from-layer="3749" from-port="0" to-layer="3750" to-port="1" />
		<edge from-layer="3750" from-port="2" to-layer="3759" to-port="0" />
		<edge from-layer="3751" from-port="0" to-layer="3754" to-port="0" />
		<edge from-layer="3752" from-port="0" to-layer="3754" to-port="1" />
		<edge from-layer="3752" from-port="0" to-layer="3758" to-port="1" />
		<edge from-layer="3753" from-port="0" to-layer="3754" to-port="2" />
		<edge from-layer="3754" from-port="3" to-layer="3759" to-port="1" />
		<edge from-layer="3755" from-port="0" to-layer="3759" to-port="2" />
		<edge from-layer="3756" from-port="0" to-layer="3758" to-port="0" />
		<edge from-layer="3757" from-port="0" to-layer="3758" to-port="2" />
		<edge from-layer="3758" from-port="3" to-layer="3759" to-port="3" />
		<edge from-layer="3759" from-port="4" to-layer="3760" to-port="0" />
		<edge from-layer="3760" from-port="2" to-layer="3761" to-port="1" />
		<edge from-layer="3760" from-port="1" to-layer="3761" to-port="0" />
		<edge from-layer="3761" from-port="2" to-layer="3764" to-port="0" />
		<edge from-layer="3762" from-port="0" to-layer="3764" to-port="1" />
		<edge from-layer="3763" from-port="0" to-layer="3764" to-port="2" />
		<edge from-layer="3764" from-port="3" to-layer="3781" to-port="0" />
		<edge from-layer="3764" from-port="5" to-layer="3766" to-port="0" />
		<edge from-layer="3764" from-port="4" to-layer="3774" to-port="0" />
		<edge from-layer="3765" from-port="0" to-layer="3766" to-port="1" />
		<edge from-layer="3766" from-port="2" to-layer="3768" to-port="0" />
		<edge from-layer="3767" from-port="0" to-layer="3768" to-port="1" />
		<edge from-layer="3768" from-port="2" to-layer="3771" to-port="0" />
		<edge from-layer="3769" from-port="0" to-layer="3777" to-port="1" />
		<edge from-layer="3769" from-port="0" to-layer="3771" to-port="1" />
		<edge from-layer="3770" from-port="0" to-layer="3777" to-port="2" />
		<edge from-layer="3770" from-port="0" to-layer="3771" to-port="2" />
		<edge from-layer="3771" from-port="4" to-layer="3787" to-port="0" />
		<edge from-layer="3772" from-port="1" to-layer="3778" to-port="0" />
		<edge from-layer="3773" from-port="0" to-layer="3774" to-port="1" />
		<edge from-layer="3774" from-port="2" to-layer="3776" to-port="0" />
		<edge from-layer="3775" from-port="0" to-layer="3776" to-port="1" />
		<edge from-layer="3776" from-port="2" to-layer="3777" to-port="0" />
		<edge from-layer="3777" from-port="4" to-layer="3778" to-port="1" />
		<edge from-layer="3778" from-port="4" to-layer="3787" to-port="4" />
		<edge from-layer="3778" from-port="3" to-layer="3787" to-port="1" />
		<edge from-layer="3779" from-port="1" to-layer="3786" to-port="0" />
		<edge from-layer="3780" from-port="0" to-layer="3781" to-port="1" />
		<edge from-layer="3781" from-port="2" to-layer="3783" to-port="0" />
		<edge from-layer="3782" from-port="0" to-layer="3783" to-port="1" />
		<edge from-layer="3783" from-port="2" to-layer="3785" to-port="0" />
		<edge from-layer="3784" from-port="0" to-layer="3785" to-port="1" />
		<edge from-layer="3785" from-port="2" to-layer="3786" to-port="1" />
		<edge from-layer="3786" from-port="3" to-layer="3787" to-port="2" />
		<edge from-layer="3787" from-port="5" to-layer="3789" to-port="0" />
		<edge from-layer="3788" from-port="0" to-layer="3789" to-port="1" />
		<edge from-layer="3789" from-port="2" to-layer="3791" to-port="0" />
		<edge from-layer="3790" from-port="0" to-layer="3791" to-port="1" />
		<edge from-layer="3791" from-port="2" to-layer="3800" to-port="0" />
		<edge from-layer="3792" from-port="0" to-layer="3795" to-port="0" />
		<edge from-layer="3793" from-port="0" to-layer="3795" to-port="1" />
		<edge from-layer="3793" from-port="0" to-layer="3799" to-port="1" />
		<edge from-layer="3794" from-port="0" to-layer="3795" to-port="2" />
		<edge from-layer="3795" from-port="3" to-layer="3800" to-port="1" />
		<edge from-layer="3796" from-port="0" to-layer="3800" to-port="2" />
		<edge from-layer="3797" from-port="0" to-layer="3799" to-port="0" />
		<edge from-layer="3798" from-port="0" to-layer="3799" to-port="2" />
		<edge from-layer="3799" from-port="3" to-layer="3800" to-port="3" />
		<edge from-layer="3800" from-port="4" to-layer="3801" to-port="0" />
		<edge from-layer="3801" from-port="1" to-layer="3802" to-port="0" />
		<edge from-layer="3801" from-port="2" to-layer="3802" to-port="1" />
		<edge from-layer="3802" from-port="2" to-layer="3803" to-port="0" />
		<edge from-layer="3803" from-port="1" to-layer="3804" to-port="1" />
		<edge from-layer="3804" from-port="2" to-layer="3806" to-port="0" />
		<edge from-layer="3804" from-port="2" to-layer="3841" to-port="0" />
		<edge from-layer="3805" from-port="0" to-layer="3806" to-port="1" />
		<edge from-layer="3806" from-port="2" to-layer="3825" to-port="0" />
		<edge from-layer="3806" from-port="2" to-layer="3815" to-port="0" />
		<edge from-layer="3807" from-port="0" to-layer="3810" to-port="0" />
		<edge from-layer="3808" from-port="0" to-layer="3810" to-port="1" />
		<edge from-layer="3808" from-port="0" to-layer="3814" to-port="1" />
		<edge from-layer="3809" from-port="0" to-layer="3810" to-port="2" />
		<edge from-layer="3810" from-port="3" to-layer="3815" to-port="1" />
		<edge from-layer="3811" from-port="0" to-layer="3815" to-port="2" />
		<edge from-layer="3812" from-port="0" to-layer="3814" to-port="0" />
		<edge from-layer="3813" from-port="0" to-layer="3814" to-port="2" />
		<edge from-layer="3814" from-port="3" to-layer="3815" to-port="3" />
		<edge from-layer="3815" from-port="4" to-layer="3816" to-port="0" />
		<edge from-layer="3816" from-port="1" to-layer="3826" to-port="0" />
		<edge from-layer="3817" from-port="0" to-layer="3820" to-port="0" />
		<edge from-layer="3818" from-port="0" to-layer="3824" to-port="1" />
		<edge from-layer="3818" from-port="0" to-layer="3820" to-port="1" />
		<edge from-layer="3819" from-port="0" to-layer="3820" to-port="2" />
		<edge from-layer="3820" from-port="3" to-layer="3825" to-port="1" />
		<edge from-layer="3821" from-port="0" to-layer="3825" to-port="2" />
		<edge from-layer="3822" from-port="0" to-layer="3824" to-port="0" />
		<edge from-layer="3823" from-port="0" to-layer="3824" to-port="2" />
		<edge from-layer="3824" from-port="3" to-layer="3825" to-port="3" />
		<edge from-layer="3825" from-port="4" to-layer="3826" to-port="1" />
		<edge from-layer="3826" from-port="2" to-layer="3827" to-port="0" />
		<edge from-layer="3827" from-port="1" to-layer="3828" to-port="0" />
		<edge from-layer="3827" from-port="2" to-layer="3828" to-port="1" />
		<edge from-layer="3828" from-port="2" to-layer="3837" to-port="0" />
		<edge from-layer="3829" from-port="0" to-layer="3832" to-port="0" />
		<edge from-layer="3830" from-port="0" to-layer="3832" to-port="1" />
		<edge from-layer="3830" from-port="0" to-layer="3836" to-port="1" />
		<edge from-layer="3831" from-port="0" to-layer="3832" to-port="2" />
		<edge from-layer="3832" from-port="3" to-layer="3837" to-port="1" />
		<edge from-layer="3833" from-port="0" to-layer="3837" to-port="2" />
		<edge from-layer="3834" from-port="0" to-layer="3836" to-port="0" />
		<edge from-layer="3835" from-port="0" to-layer="3836" to-port="2" />
		<edge from-layer="3836" from-port="3" to-layer="3837" to-port="3" />
		<edge from-layer="3837" from-port="4" to-layer="3838" to-port="0" />
		<edge from-layer="3838" from-port="2" to-layer="3839" to-port="1" />
		<edge from-layer="3838" from-port="1" to-layer="3839" to-port="0" />
		<edge from-layer="3839" from-port="2" to-layer="3840" to-port="0" />
		<edge from-layer="3840" from-port="1" to-layer="3841" to-port="1" />
		<edge from-layer="3841" from-port="2" to-layer="3843" to-port="0" />
		<edge from-layer="3842" from-port="0" to-layer="3843" to-port="1" />
		<edge from-layer="3843" from-port="2" to-layer="3855" to-port="0" />
		<edge from-layer="3844" from-port="0" to-layer="3847" to-port="0" />
		<edge from-layer="3845" from-port="0" to-layer="3847" to-port="1" />
		<edge from-layer="3845" from-port="0" to-layer="3851" to-port="1" />
		<edge from-layer="3845" from-port="0" to-layer="3854" to-port="1" />
		<edge from-layer="3846" from-port="0" to-layer="3847" to-port="2" />
		<edge from-layer="3847" from-port="3" to-layer="3855" to-port="1" />
		<edge from-layer="3848" from-port="0" to-layer="3855" to-port="2" />
		<edge from-layer="3849" from-port="0" to-layer="3851" to-port="0" />
		<edge from-layer="3850" from-port="0" to-layer="3851" to-port="2" />
		<edge from-layer="3851" from-port="3" to-layer="3855" to-port="3" />
		<edge from-layer="3852" from-port="0" to-layer="3854" to-port="0" />
		<edge from-layer="3853" from-port="0" to-layer="3854" to-port="2" />
		<edge from-layer="3854" from-port="3" to-layer="3855" to-port="4" />
		<edge from-layer="3855" from-port="5" to-layer="3856" to-port="0" />
		<edge from-layer="3856" from-port="1" to-layer="3857" to-port="0" />
		<edge from-layer="3856" from-port="2" to-layer="3857" to-port="1" />
		<edge from-layer="3857" from-port="2" to-layer="3858" to-port="0" />
	</edges>
	<rt_info>
		<Runtime_version value="2024.3.0-15840-b80e30c4d79-pr_25223" />
		<conversion_parameters>
			<framework value="pytorch" />
			<is_python_object value="True" />
		</conversion_parameters>
		<nncf>
			<friendly_names_were_updated value="True" />
			<weight_compression>
				<all_layers value="False" />
				<awq value="False" />
				<gptq value="False" />
				<group_size value="128" />
				<ignored_scope value="[]" />
				<mode value="int4_sym" />
				<ratio value="1" />
				<scale_estimation value="False" />
				<sensitivity_metric value="weight_quantization_error" />
			</weight_compression>
		</nncf>
		<optimum>
			<optimum_intel_version value="1.19.0.dev0+bb9550b" />
			<optimum_version value="1.20.0" />
			<pytorch_version value="2.3.1+cpu" />
			<transformers_version value="4.41.2" />
		</optimum>
	</rt_info>
</net>
